model.pth (torch, 140503 bytes, 6 tensors)

weight f4 [128, 200]
000000 54 7f 2d 3d 9e 8e 18 3d 72 c4 ca 3a 07 07 14 3e
       0.042357758 0.037245385 0.0015469922 0.14455806
000010 9d 05 07 3d 7a 90 66 3d 31 cf 5d bc 4e 31 0c be
       0.032964338 0.056290127 -0.013538168 -0.13690683
000020 fd 61 2c be 4c 3c 7a bc 6d 48 07 3e c3 e5 97 3d
       -0.16834255 -0.015273165 0.13211222 0.074168704
000030 86 a4 c5 3d 6c ba bf 3d bc e8 2f 3d 4c a0 19 3e
       0.09650521 0.09361729 0.042946562 0.15002555
000040 0d 25 15 3c a2 39 7f bd bd 2f af bd 63 8c c1 bc
       0.009103072 -0.062310822 -0.08554027 -0.023626512
000050 f9 60 15 3d 17 ce b8 3c 6f ce 2c 3d 5c 86 20 3e
       0.036469433 0.022559209 0.042189058 0.15676254
000060 f4 86 6c 3d 93 34 bb ba 30 8d a5 3d f1 ce a4 bd
       0.05774589 -0.0014282636 0.0808357 -0.080472834
000070 87 a3 1d be c7 04 28 be 4f e1 0a 3c c6 bc f6 3d
       -0.15394412 -0.16408072 0.008476569 0.120477244
000080 81 91 9f 3d 5c a4 99 3d 8f 2d 81 3c 29 3e 49 3d
       0.077914245 0.07502052 0.015768794 0.049131546
000090 0f 1e 88 3d 5c c2 0a be 80 fa fe bd 1c 1c 38 bd
       0.06646358 -0.13550705 -0.12450123 -0.044948682
0000a0 6f dc 63 3c b6 b9 85 3d 22 87 75 3d 04 67 c9 3c
       0.013907536 0.06529562 0.059943326 0.024585254
0000b0 47 ff ea bc e3 87 03 3d 46 8c 8a 3c ad bb c6 bd
       -0.028686179 0.032112014 0.01691259 -0.09703765
0000c0 a9 dd 90 bd 6c cc 69 3d 28 4c 15 3c dd 3a 17 3a
       -0.07073528 0.057079718 0.009112395 0.0005768964
0000d0 c1 8f 99 3c d1 cc 4b b9 bb 1f 84 3c 01 3c 8d bd
       0.018745305 -0.00019435889 0.016128412 -0.068962105
0000e0 1e 83 94 bd 4a 3a 53 bd 53 94 9a bd 07 cb 09 be
       -0.07251571 -0.05156926 -0.07547822 -0.13456355
0000f0 a3 5d 7c bc 98 94 16 3e 9e 19 43 3d 10 05 b7 3d
       -0.015403184 0.14705122 0.047631852 0.089365125
000100 1c e4 ce 3c 78 b4 c9 bd c8 cc 60 3a 6b 49 44 be
       0.025255255 -0.09848875 0.00085754367 -0.19168632
000110 e2 58 5d be 20 d0 a4 bd 9a 88 29 bd 03 8e aa bc
       -0.21615937 -0.08047509 -0.04139004 -0.02081967
000120 e7 6f e7 bc 61 5f 0f bd 60 a6 ea bc 9d 98 1e 3d
       -0.028251601 -0.03500307 -0.028643787 0.038719762
000130 90 ae 2b bc 75 28 b8 bd b9 83 2d bd 32 d8 71 bd
       -0.010478631 -0.089920916 -0.04236195 -0.05904407
000140 c2 1b ff bb 9a 80 12 3d 85 30 4e 3d 1c 4d 39 ba
       -0.0077852914 0.035767175 0.05033924 -0.000706868
000150 1c 6b 42 3d 98 b4 8c bd b8 55 8d bd 71 52 9f bc
       0.04746543 -0.06870383 -0.06901115 -0.01944849
000160 24 4a 8a bd d2 2d 82 bd e9 05 3e bd 31 f0 fd 3c
       -0.067524225 -0.06356396 -0.046392355 0.030998321
000170 5f 4c 72 bd f2 99 95 bd 86 06 82 bc ac 41 6a bd
       -0.059154864 -0.07304753 -0.015872251 -0.057191536
000180 2e 3a ef bc 07 cf 8e 3c c0 05 ce bd 61 96 d4 3b
       -0.029202547 0.017432703 -0.100596905 0.006487653
000190 d2 66 ac 3d 70 a5 ea bc 66 73 48 bd 65 c3 0b 3c
       0.08418049 -0.02864334 -0.048938178 0.008530472
0001a0 85 65 9f bd a3 96 36 3c cc cc 00 3d a6 c5 13 3d
       -0.07783035 0.011144313 0.03144531 0.036077164
0001b0 80 e1 d1 bc 22 43 b3 bd 5c e4 60 3d 0d f8 49 3d
       -0.025620222 -0.08753039 0.05490528 0.049308825
0001c0 ce 3f 51 3d ef 24 fe bc 45 3b 59 3d 87 4e 4e bd
       0.05108624 -0.03102347 0.05303504 -0.05036786
0001d0 be 28 dc 3b 14 08 99 3d 4e e1 0b be d3 c0 71 bd
       0.006718724 0.07472244 -0.13660166 -0.059021782
0001e0 36 7c 4d 38 c5 52 c0 bc 3f d6 4e bd f0 61 d7 3d
       4.899149e-05 -0.023476968 -0.05049729 0.10516727
0001f0 da c5 bc 3d 64 75 23 bc 4c 90 64 3b bd 27 0a 3d
       0.09217425 -0.009976719 0.0034876047 0.033729304
000200 5a fa 87 bd f9 da 25 3d 4c 2b dc 3b cb 6a ad 3c
       -0.06639548 0.04049203 0.0067190286 0.021169087
000210 fa 9e 55 3d af 26 a9 3d 77 18 70 bd 94 da 38 3d
       0.052153565 0.082593314 -0.05861708 0.045130327
000220 36 27 e8 3b 15 06 0b 3d 22 44 04 be 9d 2d 99 3c
       0.0070847524 0.033941347 -0.12916616 0.018698508
000230 2b 37 ed 3c 91 cc f1 bc 3b c6 85 3d 65 05 c5 bd
       0.02895697 -0.02951649 0.0653195 -0.096201696
000240 30 f9 4a bb c0 4d 50 bc fc 13 f4 bc f3 15 01 bd
       -0.0030971281 -0.01271385 -0.029794686 -0.031515073
000250 8d ca c7 bd c5 69 6a bd e4 20 0f be f8 b0 f8 bd
       -0.0975543 -0.057229776 -0.1397739 -0.12143129
000260 fa 55 18 bd 2d 50 59 bd e4 cf b4 bb 4d 5e 4e 3d
       -0.03719137 -0.053054977 -0.0055179466 0.0503829
000270 bb 6a 98 bd 60 49 89 3d eb 64 83 bc 9f cc e2 bd
       -0.07442232 0.06703448 -0.016039332 -0.110741846
000280 90 4f 08 bd 86 56 b1 3d d8 f1 91 bd 09 07 28 bd
       -0.033279 0.08659081 -0.07126206 -0.041022334
000290 e6 bc c8 bd 06 84 ff 3c 04 bc 91 3d e5 70 88 bd
       -0.098016545 0.031190883 0.07115939 -0.06662158
0002a0 ef 0a 54 bd bb dd b7 3c 60 63 83 3d cc 9b ba 3d
       -0.05176824 0.022444597 0.06415439 0.09111747
0002b0 2d 27 74 3d 88 e5 67 3d 84 1e dc bc 08 fe b5 3b
       0.059607673 0.056615382 -0.02687002 0.0055539645
0002c0 e4 d7 8f bd f7 56 f8 bd d2 e5 a4 bd 98 63 f4 bd
       -0.070236 -0.12125962 -0.08051647 -0.119330585
0002d0 54 5d 4d 3d 66 47 74 bd 81 78 99 bd 1a 3c e2 3c
       0.050137833 -0.059638403 -0.074936874 0.02761655
0002e0 b8 1e b8 3c 21 ff 36 bc f8 ca 9c 3c da ad 72 bd
       0.022475585 -0.011169226 0.019139752 -0.05924783
0002f0 71 4d c0 bc d5 7a 9b bd f1 ea 9a 3b fb e5 c8 bc
       -0.023474427 -0.07591788 0.004727714 -0.024523726
000300 d0 9b 9e 3c 46 89 42 bd 58 38 96 3d a5 af 99 bd
       0.019361407 -0.047494195 0.073349655 -0.07504205
000310 30 b2 9f bd 2f 37 3f bd 79 b9 cf b9 f9 84 39 3c
       -0.077976584 -0.046683487 -0.00039620305 0.011323207
000320 ac 24 00 3d b2 b5 c7 bd 71 d1 5a bc 22 d1 da 3d
       0.031284973 -0.097514525 -0.013355599 0.1068442
000330 98 3e 5c bc e6 56 ae bd 42 0e 69 bc be 91 d1 3c
       -0.013442658 -0.08512668 -0.014224591 0.02558219
000340 2f 06 78 3d 2b 4a 33 3d d9 6d 86 3c dd 2a bd 3b
       0.060552772 0.043771904 0.016409801 0.005772932
000350 31 3e 01 3d 3d b8 99 3d 67 f6 cc 3c 54 a7 b4 3d
       0.03155345 0.07505844 0.025019838 0.08820978
000360 27 58 51 3d 9a 63 65 3b a0 0e a2 bc 82 59 93 bd
       0.05110946 0.0035001994 -0.019782364 -0.07194807
000370 38 07 a2 3d 0f 6d a1 3c 2c 94 62 3d 73 80 00 3e
       0.07911533 0.019705324 0.05531709 0.12549
000380 95 26 ff 3d eb f7 69 3d af d0 cf 3c 12 7b af bc
       0.12458531 0.0571212 0.025368063 -0.02142099
000390 41 b5 f2 ba c1 f2 0f bc 3b 36 96 3d 43 b4 98 3c
       -0.0018517153 -0.008785904 0.073345624 0.018640643
0003a0 a5 2d 9a 3c 3e 64 72 3c a8 af 90 3d 11 18 a3 3d
       0.018820593 0.014794407 0.07064754 0.07963575
0003b0 9f 7a bd 3c 58 38 c8 bc ef 30 b3 bd 79 34 d0 bc
       0.02312976 -0.02444093 -0.08749568 -0.025415646
0003c0 34 82 3f bd af 73 a0 3d 01 ca 3e 3d d1 57 e6 3c
       -0.04675503 0.07834565 0.046579365 0.028118046
0003d0 4c 3b fb bc f0 d4 32 bc f3 d8 d9 3c da 0e d2 bb
       -0.030667923 -0.010915026 0.026592707 -0.006410462
0003e0 01 0c b3 bd af e1 9a bd e4 82 b3 bc 8a 65 89 bc
       -0.08742524 -0.07562577 -0.021913 -0.01677205
0003f0 a2 d1 26 bd d1 eb 76 bc b5 c9 d8 3c a0 b8 b0 bd
       -0.040727265 -0.015070871 0.026463369 -0.086289644

bias f4 [128]
000000 b9 93 f6 3d 3a 62 1c 3e 9f 09 e0 bd 3b 72 60 3d
       0.120398946 0.15271845 -0.10939335 0.05479644
000010 ce 86 a2 bd d0 29 64 be 52 dd 69 3d ea 53 2b 3e
       -0.07935868 -0.22281575 0.057095833 0.1673123
000020 84 8b c3 3d a4 a0 3b 3e 0b aa 50 bc 8d 51 3b 3d
       0.09548095 0.18322998 -0.012735854 0.04573207
000030 54 b2 90 39 fb 14 16 3e f2 64 33 bb a3 9d 1a bd
       0.00027598685 0.14656441 -0.00273734 -0.03774799
000040 fc 1d 1c 3e d1 ec 0a 3e 80 e6 aa bd f5 c0 c8 bc
       0.15245813 0.13566901 -0.08344746 -0.024506072
000050 a2 94 8c bd c1 61 48 3e 4e 63 21 be 2e 3d 88 3d
       -0.06864287 0.1956854 -0.15760538 0.06652294
000060 bb 65 b7 3c 12 38 32 3c a7 e4 b5 bc 36 55 23 3c
       0.022387376 0.010877626 -0.022203756 0.009969046
000070 19 04 ca 3d a7 0e ff bd 3c 83 ab 3d 92 3b 27 3d
       0.09864063 -0.124539666 0.0837464 0.040828295
000080 ec 74 3c 3c 9f ab ae 3d 11 4a fd bc f2 cc 83 bc
       0.011502486 0.08528828 -0.030919107 -0.016088936
000090 92 fe 0e be d8 8f 6b 3d 3c 83 c6 bd c6 61 cb bd
       -0.13964298 0.057510227 -0.09693 -0.09930758
0000a0 15 60 42 be eb 7a 65 bd e5 34 18 3e 97 d5 92 3d
       -0.18981965 -0.056025427 0.14863928 0.07169645
0000b0 24 5c 38 bd c3 9a 79 3d cb 4d ec bc e6 f7 17 3d
       -0.045009747 0.060938608 -0.028845688 0.03710165
0000c0 e2 c0 48 3e db fc 34 bd f6 ca 32 3d 16 07 54 bd
       0.19604829 -0.044186454 0.04365059 -0.05176457
0000d0 77 81 18 3d b7 7e 06 bd 2d 42 22 bd b3 85 69 bc
       0.037232842 -0.03283569 -0.03961389 -0.014253068
0000e0 9a 64 8d bd c2 3e 47 bd 87 d9 37 bc ce 1c 52 bc
       -0.06903954 -0.048643835 -0.011221296 -0.01282425
0000f0 d1 a6 0f be 97 e1 3a be 23 e2 3b be cd ae 03 be
       -0.14028479 -0.18250118 -0.18347983 -0.1285965
000100 12 9b f9 3d ee ee b0 3d 4c 62 6d 3c 07 ce 00 be
       0.121877804 0.08639322 0.014488768 -0.12578593
000110 fe ea 36 3e 6e 38 3f be c9 84 8f bc cd 0c 6c bd
       0.1786308 -0.1867387 -0.017519372 -0.057629395
000120 02 01 d2 3d 79 97 81 bd 3f 6f 5e 3e 55 eb d2 3d
       0.102540985 -0.06327719 0.21722125 0.10298792
000130 09 1e 9b bc 61 36 ea bd 72 85 88 3c 67 b8 b4 3d
       -0.01893522 -0.11436153 0.016665194 0.088242345
000140 ae 2d c9 3b 74 df c8 3d e9 2b bc bd 35 44 36 be
       0.0061394786 0.09808245 -0.09188063 -0.17799456
000150 ca e7 eb bd 09 d9 2b 3c ea 52 0c 3e d0 63 48 3e
       -0.1151882 0.010488757 0.13703504 0.19569325
000160 ef a8 a0 3d 21 b6 8e bb 1e 42 ce 3c a1 28 59 bd
       0.078447215 -0.0043552076 0.025178012 -0.053017262
000170 69 d9 c7 bc 29 40 32 3e fc eb 3a be a8 2c 03 3b
       -0.024395661 0.17407288 -0.18254083 0.002001563
000180 ca 75 bd bd f4 1e 26 be b5 1b de 3c fe 6a b7 bd
       -0.09250982 -0.16222745 0.027112821 -0.08955954
000190 06 86 22 be 84 04 5b 3e e7 7e 21 3e 9d 60 95 bd
       -0.15871438 0.21388441 0.15771066 -0.07293818
0001a0 41 60 50 3d b1 04 41 3d cc 0d 85 3d 1f 8c f4 b9
       0.050873045 0.047123615 0.06496772 -0.00046643705
0001b0 cb de d3 bd 53 5e da 3d 09 0d 5c bd 69 b0 16 bd
       -0.10345229 0.10662522 -0.05372337 -0.03678933
0001c0 d6 48 1d 3d eb 9b 0b be 50 a7 96 bb be 53 2a be
       0.03839954 -0.13633697 -0.004597582 -0.16633508
0001d0 3d 2e e4 3c e7 b4 ca 3b 6c 2f f3 bd 34 fa ab 3d
       0.02785408 0.006186116 -0.118742794 0.08397332
0001e0 3f 56 fa bd 1e e1 0d 3e 05 20 92 3d f4 9f 85 bd
       -0.122234814 0.13855407 0.071350135 -0.06524649
0001f0 3b 33 ac bd 83 4e 23 3e 3c bd b3 bd 3f 47 4f bd
       -0.08408209 0.15947919 -0.08776328 -0.050605055

weight f4 [64, 128]
000000 b7 c8 80 3b e8 2b 26 bb 6c 22 5c bd 07 ee 8b bd
       0.003930177 -0.002535576 -0.053743765 -0.068325095
000010 ee fb 43 bd a9 66 f2 bc d1 e3 ae bd f9 01 c5 bd
       -0.04784768 -0.029589968 -0.08539546 -0.09619517
000020 9d 19 a9 bd e5 8d 44 bd 6f 01 9c 3c 8e 2f 4e 3d
       -0.082568385 -0.047986884 0.019043652 0.05033832
000030 7c a8 64 bc 04 74 4a 3d 65 1b 09 bd c9 fe 93 3d
       -0.013956185 0.049427047 -0.03347339 0.07226331
000040 23 c1 c3 bd 33 e7 27 3b 04 cb 30 3d 0e 34 b5 bd
       -0.09558322 0.0025619983 0.04316236 -0.08847819
000050 73 1c a9 3c a8 1f 91 bd 72 99 67 3d c4 48 73 bd
       0.020643448 -0.07086116 0.05654282 -0.059395567
000060 d1 13 3d bc f5 96 01 bd 16 55 86 bd b2 68 ed 3c
       -0.011540369 -0.031638104 -0.065591976 0.028980587
000070 7e 4b b6 bd 80 13 14 bd f6 93 80 bd 5f eb d2 bc
       -0.08901118 -0.03615141 -0.06278221 -0.025747
000080 f9 b8 89 3d db e2 93 bd 1d 80 fb 3d 5e d8 5f bd
       0.06724734 -0.072210036 0.12280295 -0.054649703
000090 22 ac b2 3c 93 97 b8 bd 50 fb 82 3d c2 1b 88 bd
       0.021810595 -0.090132855 0.0639559 -0.066459194
0000a0 df b5 ef 3d 7b 9e 89 3d 87 b0 17 be 9d 28 9c bd
       0.11704611 0.06719681 -0.14813434 -0.07624934
0000b0 d9 ec c6 3d 42 0a 1b bc 2a c6 7f bd 46 36 34 3d
       0.09713144 -0.009462895 -0.062444843 0.04399707
0000c0 d3 27 0a 3c e0 5f a6 bb 86 4a ba bc ac 46 2e bc
       0.008432346 -0.005077347 -0.022740614 -0.010636967
0000d0 6d 92 a6 bd e8 dd 96 3c b5 a0 7e bd 9d 5a 58 3d
       -0.08133397 0.01841636 -0.06216498 0.05282079
0000e0 ad 03 d7 bc f7 ff 10 3e 1c d2 58 bd 4b 7b 65 3d
       -0.02624687 0.14160143 -0.05293475 0.056025784
0000f0 5d e3 1f 3d e6 54 d5 3d 4f d3 88 3c 25 49 89 3c
       0.03903519 0.10416584 0.016702322 0.01675851
000100 f5 0d a7 bd 71 c7 0d be 42 99 59 3d f4 a9 0e 3d
       -0.08156959 -0.13845612 0.053124674 0.03483005
000110 15 1f 13 bd 33 26 0f 3e 41 e5 e3 bc d6 47 3d 3d
       -0.035918314 0.13979416 -0.027819278 0.046211086
000120 af 2e 6c 3d 1a b9 95 ba 9c 57 96 bd f4 92 ab bd
       0.05766171 -0.0011422962 -0.07340929 -0.083776385
000130 fa 42 47 3d df fb c9 3d 2d 0d 42 bd 1d 0d eb 3c
       0.04864786 0.09862494 -0.047375847 0.028692776
000140 98 95 34 bd fb a2 49 bc 09 00 df bc 6f 88 17 3e
       -0.044087976 -0.012306924 -0.027221696 0.14798139
000150 74 dc 04 3c b0 f5 82 bd b4 99 46 bc e4 28 00 bd
       0.008109201 -0.063945174 -0.012121607 -0.031288996
000160 5c 1c 0e bd a5 88 6f 3d a0 88 8b bd d7 35 1b 3d
       -0.034695014 0.058479924 -0.068131685 0.037893143
000170 21 a8 4d bc 98 df 13 be cd 03 a0 3c be 7b 0c bd
       -0.012552292 -0.14440763 0.019533062 -0.034297697
000180 2a cc af bc 76 aa 08 bd 94 d0 c5 3d ce f0 be 3d
       -0.021459658 -0.03336569 0.09658924 0.093232736
000190 d5 60 e1 3d d7 56 67 bd bc fd ed bd 7e 2e 37 bd
       0.11004797 -0.0564793 -0.116206616 -0.044722073
0001a0 31 30 14 bd 25 7e cf 3b 60 0f 6e bc 17 33 40 3d
       -0.03617877 0.0063321763 -0.014530033 0.046923723
0001b0 7c 7d ab 3d ae d2 7c 3d 79 be 94 3d b7 2a 9a bc
       0.083735436 0.061724357 0.07262892 -0.018819196
0001c0 ca 6c 05 bd 5e f3 2b 3d f5 c5 f0 bb af 18 59 3d
       -0.032574452 0.04198014 -0.007347817 0.053002056
0001d0 81 f2 cf 3c eb 69 dd 3c 75 92 4b bd 96 6d 14 3d
       0.02538419 0.027028045 -0.04970022 0.03623732
0001e0 30 3a 08 3e 50 68 2e 3d 11 de df 3b 53 6b d3 bb
       0.13303447 0.04257995 0.0068318923 -0.006452003
0001f0 a7 11 b2 3d f7 b5 8f bc 27 ec a2 39 5c 85 44 bd
       0.08694773 -0.017542822 0.00031074995 -0.047978744
000200 65 0c e1 3d 39 e6 8d 3d 9b 21 0e 3d 19 94 10 3d
       0.10988692 0.06928677 0.034700017 0.035297487
000210 43 00 c6 bc 64 22 ff bd 2a e4 88 3d 4f 8c 92 3d
       -0.024170047 -0.12457731 0.06684144 0.07155668
000220 30 37 39 3d 34 b4 66 3d 75 a2 a2 3c d8 f1 75 bd
       0.045218647 0.0563242 0.019852856 -0.060045093
000230 32 e7 82 3b d2 c0 f0 3d 4e 24 bf bd d2 08 b6 bc
       0.003994846 0.117555276 -0.093330964 -0.022221003
000240 93 9b 0c 3e 04 0d 00 bd 24 7a 98 bc 47 11 b5 3d
       0.13731222 -0.031262413 -0.018612929 0.08841186
000250 61 e5 73 bd 0a 29 57 3d 29 b6 b2 bd 3b 68 59 3d
       -0.059544925 0.052529372 -0.087261505 0.053077918
000260 c9 de e3 3d 80 94 58 bd 6d 7e 4a bd e9 41 97 3d
       0.11126477 -0.052875996 -0.049436975 0.07385618
000270 0e 50 42 3d 46 c0 ce bb 5e 3e 5c 3d 51 20 17 3d
       0.047439627 -0.006309542 0.053770415 0.036896054
000280 69 48 c1 3d bd 0a 3c 3d 50 ce f1 3b 01 15 eb 3c
       0.09437639 0.04590868 0.0073793307 0.028696539
000290 0a c6 10 bc 88 55 92 3d 5d 95 94 bb 0a 6a 61 bd
       -0.008836279 0.0714522 -0.004534407 -0.055032767
0002a0 a2 83 d1 bb ec 80 b2 bd c7 37 80 3c fb 23 32 bc
       -0.0063938657 -0.08715996 0.015651597 -0.010872836
0002b0 3d 4c 8b 3d a0 02 16 3e 7f 25 e0 bd 52 f7 43 3d
       0.06801651 0.14649439 -0.10944652 0.047843285
0002c0 62 ab 17 3d ab ac cc bb 0e bd cb bc 64 65 ea bc
       0.037028678 -0.0062461696 -0.024870422 -0.0286128
0002d0 05 8a cf 3c 52 53 bf 3c 97 7e f5 bd c8 13 56 3c
       0.025334368 0.02335516 -0.11987036 0.01306624
0002e0 41 18 f2 bd 02 1b 54 3d 0f 06 de bd 16 dd 38 3d
       -0.11821032 0.05178357 -0.10840999 0.04513272
0002f0 02 f3 0d bb e4 40 50 bd 33 68 45 3b b0 57 bd bd
       -0.0021659737 -0.050843135 0.0030121922 -0.09245241
000300 6d 5e b6 bc 12 f0 6d ba 3c a2 0f 3d da 31 2e be
       -0.022261823 -0.0009076606 0.035066828 -0.17011204
000310 4c 0d c0 3d 74 5c 90 bd eb 17 0a 3e 38 fc 5d bd
       0.09377536 -0.07048884 0.13485686 -0.054195613
000320 96 eb b1 3c 5a 15 d1 bd f2 1b 93 bc e4 9c f6 3c
       0.021718781 -0.102091506 -0.017957661 0.030104108
000330 58 f0 d4 3d 97 44 7e 3d d5 3d f8 bd c1 8b 0e 3d
       0.103974044 0.06207713 -0.121211685 0.03480125
000340 24 a4 5e bd c2 be 94 bb e6 88 36 bd 0d 25 aa bc
       -0.054355755 -0.0045393417 -0.04456415 -0.02076962
000350 df 7f b2 ba 6c e1 5d bd aa d9 15 b9 68 eb cf 3d
       -0.0013618431 -0.054170057 -0.00014290833 0.10152322
000360 81 a0 bb 3d 21 b5 02 be 3a 86 0b bd fb 3f c7 3d
       0.09161473 -0.12764408 -0.034063555 0.09729
000370 d3 7f ac bd 17 3e 8e bb d8 60 f5 bd 4b 95 42 bb
       -0.08422818 -0.004340898 -0.11981362 -0.0029691036
000380 bc 7f 8c bc 71 40 ca bb 6a c1 00 3e a9 1b 69 3d
       -0.017150752 -0.006172233 0.12573782 0.056911144
000390 13 0c 1f 3d 7a 07 ed 3c 30 79 d0 3d b0 45 84 bd
       0.038829874 0.02893423 0.10179365 -0.06458604
0003a0 df 3e 90 3d 0d 0b 05 3d 53 41 dd 3d 86 f1 d6 3c
       0.07043242 0.032481242 0.10803475 0.026238214
0003b0 6b c0 23 bd 40 08 f4 b9 e3 5f ef bd ff 60 3a 3d
       -0.039978426 -0.00046545453 -0.11688211 0.04550266
0003c0 2a c1 99 3b d2 5e 9f ba 8a be 1b 3c 39 a4 58 3d
       0.0046922164 -0.0012158996 0.009505877 0.05289099
0003d0 f9 c7 4f 3d 25 ea d3 3c 88 f5 9c bd bd 9e 95 3d
       0.05072782 0.025868485 -0.07664019 0.073056675
0003e0 d1 03 df bc 90 85 1e 3e 27 bb 25 3e 48 61 72 bd
       -0.0272235 0.15480638 0.16184674 -0.059174806
0003f0 5b 49 d9 3c 59 02 70 3c 21 93 9e bd 82 44 67 3d
       0.026524236 0.014648997 -0.07742906 0.05646182

bias f4 [64]
000000 bf 0a e9 bd f5 ce 3d 3e 34 c3 bd bd fb a3 08 3e
       -0.11379003 0.18535979 -0.09265748 0.13343804
000010 e1 34 87 3b 46 fe 11 be 97 5b 07 3e ce 57 50 bc
       0.0041261767 -0.14257154 0.13218533 -0.012716247
000020 39 d6 b5 3d d3 a0 10 be 31 37 a5 3d eb 60 22 be
       0.0887875 -0.1412385 0.080671676 -0.15857284
000030 31 ee 4a bd 3c 7a 8b 3d c6 36 60 bd 2c ad 0f 3e
       -0.049543563 0.06810424 -0.054739736 0.14030904
000040 3d b4 58 ba fb 21 fb bd ad 67 98 3d 3d 28 11 be
       -0.00082666037 -0.12262341 0.074416496 -0.14175506
000050 70 87 c5 3d 92 0c c8 bd d9 ec b1 3c 69 15 84 3d
       0.09644973 -0.097680226 0.021719383 0.06449396
000060 d4 ee 54 3d 47 67 eb 3d f2 32 2b be e4 13 50 bd
       0.051985577 0.11494308 -0.16718653 -0.05080022
000070 c8 eb 21 3e de 05 05 3d 91 18 d2 bd 58 bc 57 3d
       0.158126 0.0324763 -0.10258592 0.052669853
000080 6a 0f a8 bd 57 ce 30 be 94 bd 60 bd a3 3a e9 bd
       -0.08206065 -0.17266212 -0.054868296 -0.11388137
000090 c3 0d 7b bd 77 7d e6 bb 03 31 7e bc 35 a0 bd bd
       -0.06129242 -0.0070339995 -0.015514615 -0.09259073
0000a0 38 fc 36 3d 10 aa b1 3d f8 3b df 3d 11 1d 75 bd
       0.04467413 0.08675015 0.1090011 -0.059842173
0000b0 ce 1c 8e 3d bf d6 03 3e d2 d1 d0 3c fd 07 53 be
       0.06939088 0.12874888 0.025490675 -0.20608516
0000c0 bf 06 39 be b4 be 4f 3c be ba e0 3d 44 43 29 3e
       -0.1806898 0.0126797445 0.10973118 0.16529566
0000d0 2b 6e f5 3d f0 4c 0a be 48 30 3a bc d3 de 81 3d
       0.119839035 -0.13505912 -0.01136405 0.063413285
0000e0 b9 38 15 be 54 33 19 3e b9 cc 56 3d 43 ad 98 3d
       -0.14572419 0.14960986 0.052441332 0.07454922
0000f0 e3 08 86 bd dc e6 0a be f9 ec 16 3e 20 a2 c1 bd
       -0.06544664 -0.13564628 0.14738835 -0.09454751

weight f4 [6, 64]
000000 e9 a1 2b 3c 3a eb 95 bd fa 89 af 3d 33 bb d5 bd
       0.010475614 -0.073202565 0.08571239 -0.10436096
000010 82 1f 90 bc a9 db 04 bd 61 bf c3 3d 5b 53 09 3e
       -0.01759315 -0.032436047 0.09557987 0.13410704
000020 6b 13 ff bd ff dc c9 ba 41 b1 72 3d 14 0a 33 3a
       -0.124548756 -0.0015400945 0.059251074 0.000682981
000030 ad d0 e5 bc 98 60 58 3d f3 1f a5 3d 7a fb a1 3d
       -0.028053606 0.052826494 0.080627345 0.079092935
000040 3f 75 45 bd 7c aa 06 bd ab d2 ec bd 67 24 e6 3b
       -0.048207518 -0.03287743 -0.11563619 0.0070233825
000050 ce 0b 44 bd f5 25 af bd 10 21 80 bd 61 6a 55 bd
       -0.04786282 -0.085521616 -0.06256306 -0.052103404
000060 42 00 e7 3d 55 5d 3c be bc 52 4d 3c 6c 40 07 3e
       0.11279346 -0.18394978 0.012531932 0.13208169
000070 f1 39 14 be 62 74 2b bd 72 84 14 be 36 9f 13 be
       -0.14475228 -0.04185904 -0.14503649 -0.14416203
000080 1d 9e 29 3e 06 31 75 3c 09 00 22 3e e5 4c b7 bd
       0.16564222 0.014965301 0.15820326 -0.08950213
000090 9b df 6c bd 5b 90 0a be ef 05 85 3c d5 14 1e 3d
       -0.057830434 -0.1353163 0.01623818 0.038594086
0000a0 5d 63 a3 bd 55 0d bf 3d 2e 5a 90 bc e1 e0 5e 3d
       -0.079779364 0.09328715 -0.017621126 0.05441368
0000b0 6a c8 93 3c 9b 41 27 bd c5 8c 9e bd 2e 50 ee bd
       0.0180399 -0.04083405 -0.077416934 -0.11636387
0000c0 7c 5e 95 3d aa 5a 1a be 9a 94 93 3d 64 35 aa bd
       0.07293412 -0.15073648 0.07206078 -0.08310965
0000d0 bb 33 dc 3c 84 31 3b b8 91 d9 9b bc f2 c8 a5 3d
       0.026880136 -4.463039e-05 -0.019024642 0.08094968
0000e0 4d ed b3 3d ef e8 34 bd e2 15 a9 3d ba d3 73 bd
       0.08785496 -0.044167455 0.08256127 -0.05952809
0000f0 93 a6 57 3d f0 2b 1b 3c 7f 4f 09 3e 14 83 19 3e
       0.052649092 0.009470925 0.13409232 0.14991409
000100 2c 72 89 bd 3b 37 ca 3d 6d 20 b6 bc 6b 47 84 3d
       -0.0671123 0.098738156 -0.022232259 0.064589344
000110 66 ad 47 bc ed af bc bd 6f 8e 33 3e 9a 4f 97 bd
       -0.0121873375 -0.09213243 0.17534803 -0.0738823
000120 fa 75 16 3d cc be fb bd ab 5a ef 3d c9 28 3e be
       0.036733605 -0.12292251 0.116872154 -0.18570246
000130 41 6a cb bd 89 69 ac 3d 56 bb b4 bd 92 f5 a9 3d
       -0.09932376 0.08418567 -0.08824794 0.08298792
000140 7b 41 9d bd 59 1a 8b bd 9a 5e ba 3d 83 51 a0 bd
       -0.07678505 -0.06792135 0.09100075 -0.07828047
000150 bc 1e 73 3d ea d2 d7 bd 2c 6c 6f 3d 8b 2a 7f 3d
       0.059355482 -0.105382755 0.05845277 0.06229643
000160 44 3f cd 3d 3f 79 04 3d ea 5f 21 be e5 b8 56 3d
       0.100218326 0.03234219 -0.15759245 0.052422423
000170 8e f5 25 3e b1 2f 97 bd 56 db 2a be f3 21 3f bd
       0.16206953 -0.07382143 -0.16685233 -0.046663236
000180 97 92 84 bd 53 66 0c be 4c ab 9d bb 8c ed 3e be
       -0.06473272 -0.13710909 -0.00481168 -0.18645304
000190 e9 bf ef bd 44 1e ba 3c 1e 1b f7 bd a5 02 2f be
       -0.11706526 0.02271951 -0.12065719 -0.17090853
0001a0 b0 64 e3 3c 40 5b ed 3d 68 b6 13 3e 3a ef 20 3c
       0.027757972 0.1158967 0.14425051 0.009822661
0001b0 5a 59 30 3e 4a 8c 08 3e 3d 92 50 3c ee be 4e be
       0.17221585 0.13334766 0.012730178 -0.20190021
0001c0 a0 5a 5b be 14 09 93 bb 94 be cc 3d 8d b7 f8 3d
       -0.2142129 -0.004487166 0.099972874 0.121443845
0001d0 f5 92 03 3e ad 17 d1 bd e8 41 2d bd 81 dc 8e 3d
       0.12849028 -0.10209594 -0.04229918 0.069756515
0001e0 44 66 3c be d0 12 ce 3d 59 d8 06 3e 7d ca 72 3d
       -0.18398386 0.10062182 0.13168468 0.05927514
0001f0 22 7f 23 be 5e 4f 4b be a6 63 db 3d fd ac bd bc
       -0.15966466 -0.19854495 0.10712366 -0.023153776
000200 99 2d 49 be de 03 15 be ae 96 e0 bd 46 fc 28 3d
       -0.196463 -0.14552256 -0.1096624 0.04125621
000210 1d 8c df 3d 36 cf 66 bd 53 60 21 3b d0 d7 05 be
       0.10915396 -0.056349955 0.0024624064 -0.13070607
000220 c6 21 be ba be c8 6e bd d3 11 ab bc da 0d 95 3d
       -0.0014505915 -0.05829691 -0.020882523 0.072780326
000230 57 d6 26 3e dd 9b 2d 3e 80 e8 de bd 77 6a 08 be
       0.16292702 0.16953988 -0.108841896 -0.13321863
000240 ec 17 19 3e fb 55 a5 3d 48 c4 22 3c 2e d1 08 be
       0.14950532 0.0807304 0.009934492 -0.13361046
000250 31 00 48 bd 6d 91 8c 3d 05 63 d5 3c 3a e3 6b bd
       -0.048828308 0.06863675 0.026048193 -0.057589747
000260 e6 e5 76 bc 42 40 bb 3d 7a b2 7a 3d 64 a7 b3 bd
       -0.0150694605 0.091431156 0.061205365 -0.087721616
000270 54 4a 49 3e 35 b5 ce bd a8 52 bf 3d f5 fe 38 3d
       0.1965726 -0.10093156 0.09341937 0.04516502
000280 56 be 0e be 62 65 b0 bd 27 64 fc bd 49 28 3e 3c
       -0.13939795 -0.08613087 -0.1232379 0.011606284
000290 ee f9 32 3d 34 fa a6 3d 9e bd ef 3d 7f 2d 3a 3e
       0.043695383 0.08153191 0.117060885 0.18181418
0002a0 9a 23 43 be 0f 58 24 3d 09 6a 17 3c 29 f0 99 bd
       -0.1905655 0.04012304 0.009241589 -0.0751651
0002b0 21 8d d8 bc 94 29 04 bd ed 84 13 be b1 b8 bd 3d
       -0.026434483 -0.032266214 -0.14406176 0.09263743
0002c0 bd 9c ff bc 02 6c 0b 3e 75 1c 15 be 3d a8 db 3d
       -0.031202668 0.1361542 -0.14561637 0.10725448
0002d0 89 6a fc 3d 56 33 fe 3d 09 16 00 3e b7 87 32 3d
       0.123250075 0.12412135 0.12508406 0.04358646
0002e0 ae ca 5c 3d 6a 38 25 be e8 76 11 be 4c 5f f2 bd
       0.053904228 -0.16134802 -0.14205515 -0.11834583
0002f0 09 27 10 3e 42 bf 9c 3d c6 42 43 bd 23 90 a2 bd
       0.1407739 0.07653667 -0.047671102 -0.07937648
000300 4a de a3 3d a8 b7 99 bd a3 51 c4 3b ce 6e 3d 3d
       0.08001383 -0.07505733 0.005991177 0.04624825
000310 9a b3 1d 3d c1 bf 11 3d c8 48 b5 3d d6 81 3e 3b
       0.03850136 0.03558326 0.088517725 0.0029069087
000320 b7 09 16 bd 06 67 e6 bd 3e 5a 35 3d 8b 29 4e 3d
       -0.03663036 -0.11250119 0.044275515 0.050332587
000330 7d ef 37 bd 37 0b b1 bd 10 0f ce 3d 61 19 0b bc
       -0.04490613 -0.08644717 0.10061467 -0.0084899375
000340 5d 15 0c be 6e 2f c9 3d 30 43 72 ba 8f 32 e8 3d
       -0.13680024 0.098234996 -0.0009241579 0.11337768
000350 10 a0 f0 3a ee 4b 1d 3d d9 c2 27 3d 00 66 cc 3d
       0.0018358249 0.03840249 0.040957306 0.099803925
000360 ce a8 f4 bd d5 e9 16 be 3d 15 06 bd 99 21 1d 3e
       -0.119462594 -0.14737637 -0.0327351 0.15344848
000370 95 32 8d bc cd 80 ce bd 24 be f9 3b 37 cf 10 be
       -0.017236033 -0.100831605 0.0076215435 -0.14141546
000380 cc 28 36 bd 9e c4 14 3e 92 77 f2 3d 83 2f c9 bc
       -0.0444725 0.14528129 0.118392125 -0.024558788
000390 38 d8 db bd 3a e1 b4 bc d9 b2 ea bd 3a 7e 7b 38
       -0.107346 -0.022080053 -0.11459894 5.996062e-05
0003a0 19 a3 cb 3c 74 e3 dc 3d 66 80 fa bd c7 63 f5 3d
       0.024858044 0.10785571 -0.12231521 0.11981922
0003b0 14 4a da 3d 00 9b 44 3d 4b e5 08 3d 05 09 a2 3d
       0.106586605 0.047999382 0.033421796 0.079118766
0003c0 b2 4e e2 bd cf 33 c8 3c dc 38 6f bd 81 e9 15 be
       -0.11050166 0.024438767 -0.058403835 -0.14639856
0003d0 fd 4a 39 3d 19 fe a6 3d de cd a6 bc 2f bd d8 3d
       0.04523753 0.08153934 -0.020361837 0.10582959
0003e0 4b 6a f7 bc 0c d3 cb bc e2 7b 86 3d 38 ad e2 3d
       -0.030202052 -0.024880908 0.065665975 0.11068195
0003f0 57 08 27 bd 1f 48 06 3e 6c 96 b0 bd 0b e9 f7 3d
       -0.040779438 0.1311345 -0.08622441 0.12104996

bias f4 [6]
000000 43 ee 6f bc 84 c5 d3 3d 69 42 7b 3d c4 2d 0f be
       -0.014644208 0.103404075 0.06134263 -0.13982302
000010 22 a0 c3 bd 16 26 87 3a
       -0.09552027 0.0010311033
