model.pth (torch, 148679 bytes, 6 tensors)

weight f4 [128, 216]
000000 e8 0b a7 bc 3a 5a dd 3c 70 d7 9b 3c 59 b9 17 bd
       -0.02039142 0.027020562 0.019023627 -0.037041996
000010 e6 47 87 bc 08 30 a0 3c 45 27 88 bd cb a9 68 3d
       -0.016513776 0.019554153 -0.06648115 0.056802552
000020 26 36 a8 bc ed a1 3b 3d 72 e1 80 3d b3 e9 4e bd
       -0.020533632 0.04580872 0.06293 -0.05051584
000030 60 f5 4c bd 77 47 68 3c 6a a4 04 3d d6 00 0c 3b
       -0.050038695 0.014177195 0.03238336 0.0021362803
000040 05 24 35 bd ab 00 23 3d 08 20 92 bc 53 a1 06 3d
       -0.044223804 0.03979556 -0.01783754 0.032868695
000050 41 d9 5c 3d 02 0a 3a 3c 2a 88 56 3d e7 9a 72 bd
       0.053918127 0.011354925 0.05237595 -0.059229758
000060 eb f7 4d bd e4 2e f0 bc f1 5b 88 bd 5c 5d 85 bd
       -0.05028526 -0.029319234 -0.066581614 -0.065119475
000070 0a c3 19 bd 6e f1 6c 3c f5 2f 8d bc 90 62 9b 3c
       -0.03753952 0.014461858 -0.017234782 0.018967897
000080 eb ca 9e 3c 3d da 78 3b 85 9b 89 bc e4 9d 8a bd
       0.019383868 0.0037971877 -0.01679779 -0.067683965
000090 21 7c c9 3c 86 a6 b1 bc 17 0c c8 bc 7a e1 1a bd
       0.024595322 -0.02168585 -0.024419827 -0.037812687
0000a0 30 9c 9c bc be ba 28 3d 48 65 1c bc 6a 9e ac 3d
       -0.019117445 0.041193716 -0.009545632 0.084286526
0000b0 54 2c 68 3c aa 4c f4 bb 75 9a 4c bc ab d1 18 3c
       0.014170725 -0.007455428 -0.012487997 0.0093273325
0000c0 cd 3f 9a 3c a9 30 4f bd 18 3a 15 3c 91 67 85 3d
       0.01882925 -0.050583515 0.009108089 0.06513894
0000d0 51 d7 d2 3c 92 8c 64 3d 2f 74 c5 bb bf f6 bf bb
       0.025737436 0.05579812 -0.006025813 -0.005858272
0000e0 82 e0 65 3d 44 1c e2 bc 3a d5 f9 39 62 e9 6d bd
       0.05612231 -0.027601369 0.00047651847 -0.0580839
0000f0 92 46 bf 3b ad 4a 83 bc d5 cb 27 bc ab c6 09 bd
       0.00583727 -0.01602682 -0.010241468 -0.03363673
000100 0f f7 38 3d cb 6c 56 bd 1e de 0e bd 03 0c 8a 3c
       0.04515749 -0.052349847 -0.034879796 0.01685143
000110 f4 89 83 bd 18 c1 b2 3b b9 ef 4e 3d 18 b9 4e bc
       -0.06422797 0.0054551475 0.050521586 -0.012617372
000120 0e c6 b2 bc e8 fa a7 3c 04 b6 16 3d b0 54 55 bd
       -0.021822955 0.020505384 0.036794677 -0.052082717
000130 85 d7 53 3c 56 db 83 3d 44 46 be 3c cd 59 b9 ba
       0.012929802 0.064383194 0.023226865 -0.0014141143
000140 e9 74 e3 3c 4e 2c d3 3b b7 43 a5 bd 71 fb dd 3b
       0.027765708 0.0064444905 -0.08069556 0.006774359
000150 76 df b0 3c 9f c3 33 bd 06 7e 8a 3c ab cf 39 bd
       0.02159093 -0.04388773 0.016905796 -0.045364063
000160 20 c7 9b bc 24 f5 18 3d 74 db 3f bd 96 7d 00 bd
       -0.019015849 0.03734316 -0.046840146 -0.031369768
000170 e9 3d 61 bd e0 f5 92 bc 07 f2 4e bc 65 52 7a 3c
       -0.054990683 -0.017939508 -0.012630946 0.015278433
000180 e3 ef bd 3c a7 ef d7 3c 09 74 1f 3d 26 2f c8 bc
       0.023185676 0.026359392 0.03892902 -0.024436545
000190 44 ea 5f bd df 4b 8c bd 03 a3 8f 3c 66 57 30 bd
       -0.054666772 -0.06850409 0.017533785 -0.0430521
0001a0 97 ea 58 bd 34 58 a5 3c 52 ff 1b bd 81 93 c6 bb
       -0.052958097 0.02018366 -0.03808529 -0.0060600643
0001b0 ad 6d 74 3d 9d 83 5b bb 24 8d 38 bd 6a 6f fc bc
       0.059674907 -0.0033495196 -0.045056477 -0.030814845
0001c0 78 d4 02 3c cc bd 4d bd 5a 45 9a 3c 8a da 9b 3c
       0.007985227 -0.050229833 0.018831898 0.019025106
0001d0 38 2f 72 3d 08 ab 78 3d 82 be 5b 3d 12 c8 d0 bc
       0.059127063 0.060709983 0.05364848 -0.025486026
0001e0 01 92 2e bb 81 96 f3 bc c0 c0 8c 3d cd e4 22 bd
       -0.0026637318 -0.029734852 0.06872702 -0.039768983
0001f0 98 70 78 bd e0 09 ca bb 2c 00 e6 bc 36 6e 85 bc
       -0.060654253 -0.006165728 -0.028076254 -0.016287904
000200 e8 37 37 3d dd b1 3a 3d f0 e6 fb 3c bd ce 63 3d
       0.04473105 0.04557978 0.030749768 0.055617083
000210 96 b9 66 3d 95 f4 10 bd fc a4 dd bc d7 2f f4 3c
       0.056329332 -0.0353895 -0.02705621 0.029807968
000220 3e 2a 17 bc 80 a2 aa bc fc 49 60 3d 5d 53 83 3d
       -0.00922638 -0.02082944 0.054758057 0.06412385
000230 d5 53 17 bc 2c 17 36 3d 72 59 d0 3d b4 27 4f bd
       -0.009236296 0.044455692 0.1017331 -0.050574973
000240 23 49 96 bc ed f1 4c bd bc 8f c5 3c b7 1c 2d 3d
       -0.018345421 -0.050035406 0.02411639 0.042263713
000250 ae c8 16 bc 58 ba 36 3d c4 12 37 bd 45 d0 09 3d
       -0.009203119 0.044611305 -0.04469563 0.033645887
000260 96 c4 d2 bc a7 b0 8b 3d 8a a8 1f 3d 9e 53 23 bd
       -0.025728505 0.06820803 0.03897909 -0.039874665
000270 76 58 4b 3d b0 84 f5 bc bd 85 9a 3d a9 70 5a bc
       0.04964491 -0.029970497 0.0754504 -0.013332524
000280 6b d9 1c 3c 3e b3 16 bd 9f 17 7c 3d 25 de 1e bd
       0.009573321 -0.036792032 0.061545964 -0.038786072
000290 53 bd 13 3d 59 16 fe bc ee 6c 52 3d ce 78 90 bd
       0.036069226 -0.031016516 0.051373415 -0.07054292
0002a0 d3 7c 83 3c 82 81 1f 3d 38 1b f4 3c 11 31 71 3c
       0.016050732 0.038941868 0.029798135 0.014721171
0002b0 de 5e 9a bd 76 af 8e b9 61 f7 dd 3a ca 7c 9a bd
       -0.07537626 -0.0002721508 0.0016934687 -0.07543333
0002c0 21 9e 30 bd 5c 7b f1 3c 6f 2f 0d bd d4 77 cd 3c
       -0.043119553 0.029477768 -0.034469064 0.025081553
0002d0 b3 1a b6 bc 32 ff 6a bc f4 6a 6f bd 23 47 39 bc
       -0.022229528 -0.01434307 -0.058451608 -0.011308464
0002e0 a2 45 0a bd ff ec dc bb 6c b4 1c bd 78 82 05 b9
       -0.033757813 -0.0067421193 -0.038258 -0.00012732472
0002f0 bb e6 b8 bc 90 56 7b bc 7d 6e 95 bd a5 98 e3 3c
       -0.022570958 -0.015340462 -0.072964646 0.027782748
000300 b3 5b ff bb c5 f3 5b bd 76 da 58 3c 21 39 c3 3c
       -0.007792914 -0.053699274 0.013235679 0.023830952
000310 ce e3 15 3d 97 da 35 3d 92 03 e4 bc 89 c2 0c bd
       0.036594205 0.044397917 -0.027833734 -0.03436521
000320 c1 7a a2 3d ef aa 9a bb d3 83 aa 3c b2 9c 7d bb
       0.0793357 -0.004720084 0.020814812 -0.0038698134
000330 75 c5 8a bd 15 84 43 bd e7 23 ee bc 59 52 2c bd
       -0.06775943 -0.047733385 -0.029069854 -0.04207072
000340 52 86 9b 3d 6b 9a 8e bc 94 3f 02 bc d7 8b 70 3b
       0.07593979 -0.017407617 -0.0079497285 0.0036704445
000350 9c 90 0e bd 98 32 80 bd ca 84 4d 3d 24 85 8f bc
       -0.03480588 -0.0625965 0.050175466 -0.017519541
000360 91 b5 f4 3c b2 8b ba 3c a6 1b 81 3d 2a 58 82 bd
       0.029871734 0.02277169 0.06304102 -0.06364472
000370 7c 27 75 3c ef 45 af 3b c9 90 8a 3d 24 0d 64 3a
       0.014963027 0.005348913 0.06765897 0.0008699468
000380 da 5b 0a bd 76 11 c3 bc c9 e4 44 3c af aa 0b 3d
       -0.033779003 -0.023812037 0.012017437 0.034098323
000390 01 48 89 bd f4 bf 17 bd 58 28 76 3d 38 e0 78 3d
       -0.06703187 -0.037048295 0.06009707 0.060760707
0003a0 58 d1 7b 3d f8 af a9 bc 6e 6c 81 3c 86 13 14 bd
       0.061478943 -0.020713791 0.015798774 -0.03615143
0003b0 d6 87 37 bc 90 5c d2 bc 32 5a a7 3d cd 32 41 3b
       -0.011201819 -0.025678903 0.081715 0.0029479743
0003c0 f4 29 4d bd 73 10 de 3a 6c 3c b9 bc 4e db 45 3d
       -0.050088838 0.0016942158 -0.02261182 0.04830485
0003d0 92 cf 0c 3d c9 cb 67 bd 57 41 f2 bb b6 57 1d 3d
       0.034377642 -0.05659083 -0.007393043 0.038413726
0003e0 03 64 69 bd bd 97 7a 3d 47 16 c2 3c dd af ca bc
       -0.056980144 0.061179865 0.023692263 -0.024742061
0003f0 d9 44 f5 3c d6 02 67 3d 89 f9 4f bd 17 4f 4c bd
       0.029940056 0.05639919 -0.050775085 -0.049880113

bias f4 [128]
000000 c2 de 0c bb 46 9c 6a 3d 61 b1 cb 3c fc a6 09 bd
       -0.0021495079 0.05727794 0.024864854 -0.033606514
000010 93 3a 1c bd 62 35 ca 3c 47 dd 2c 3c 0f a5 5e 3d
       -0.0381418 0.024683658 0.0105508035 0.05435663
000020 22 f9 4f bd 18 b4 83 3d 7a 40 15 bd b0 b3 4c 3d
       -0.0507747 0.064308345 -0.036438443 0.04997605
000030 e4 12 70 bd 40 71 c4 34 07 22 3a 3d ed d6 69 bd
       -0.058611766 3.6590245e-07 0.045442607 -0.057089735
000040 82 a4 5b 3d e1 9d 8e 3b a0 1e 5c 3d f0 b4 fd bc
       0.053623684 0.0043523167 0.053740144 -0.030970067
000050 15 1a 0f 3d 6f 8d 87 3d 33 26 a5 3c f6 09 ab bc
       0.034936983 0.06618773 0.020159816 -0.020878773
000060 72 dd 26 3d df 09 8f bc 2a b4 68 bd e5 06 5f bd
       0.04073853 -0.017460762 -0.056812443 -0.054449935
000070 27 f9 9a 3c 73 6c 83 3c 38 22 56 3d 86 8b 57 bd
       0.018917633 0.016042924 0.052278727 -0.052623294
000080 74 4b 27 bb 7c 70 f6 3c 5b 06 6e 3c 92 30 5e bd
       -0.0025527151 0.030082934 0.014527882 -0.05424554
000090 6d 70 7a 3c 3a 60 37 bd 9e d4 4f bc 08 b7 bc bb
       0.015285593 -0.044769503 -0.012684969 -0.0057591237
0000a0 bf ce 10 3d 3d ad 2c bd b4 65 8a bd fc 55 06 bd
       0.03535342 -0.0421574 -0.067576796 -0.032796845
0000b0 67 2a 14 bb be fb 10 3d e3 75 06 3d 02 0a 2c 3c
       -0.0022608282 0.03539633 0.03282727 0.010500433
0000c0 e7 4c fe bc f7 f2 94 bc 60 b3 37 3d a8 29 37 3d
       -0.03104253 -0.01818226 0.0448488 0.04471746
0000d0 53 22 05 bd 47 03 92 3b 43 b7 ea 3a 1d af ac 3d
       -0.032503437 0.004455957 0.00179074 0.08431838
0000e0 dd 80 b2 3c ab b0 21 3d 64 77 a5 bd 7a fc c0 bb
       0.021789962 0.039475124 -0.080794126 -0.0058894726
0000f0 a8 15 4b 3c 31 35 3d bd bc a0 14 bc d7 c4 e7 3c
       0.0123953 -0.046193305 -0.009071525 0.028292103
000100 a1 5d 20 3d 85 14 6f 3d 46 c8 cf bc 21 33 05 3d
       0.03915179 0.05836918 -0.025364053 0.032519463
000110 e8 e4 ac 3c fb a0 b0 bd bc e3 d8 3b e6 03 20 bd
       0.021105245 -0.086244546 0.006618945 -0.039066218
000120 f9 1d fa bc b4 2f 87 bd 3e 7a 30 3d d7 14 56 3d
       -0.03053187 -0.066008955 0.04308533 0.05226597
000130 83 5c b1 bc 0c 9b 3b bd b9 3f 1c 3d 87 8d 0b bc
       -0.021650558 -0.04580216 0.03814671 -0.0085176295
000140 a0 4d 36 3d 52 a9 2d 3d 7f 50 97 bc af 8a f8 3c
       0.044507623 0.042397805 -0.018471 0.030339567
000150 1c 9b 72 3d 32 32 9b 3c 45 01 34 bd 4d 46 9b 3d
       0.059229955 0.018944833 -0.043946523 0.07581768
000160 d2 b8 04 3d 15 77 5a bb 41 c5 3a bd 05 5e 37 3d
       0.03240282 -0.0033335139 -0.045598272 0.0447674
000170 91 8e df 3c 9f da 3d bd 42 d3 f4 bc ae 81 96 bd
       0.02728966 -0.04635107 -0.029885892 -0.07348953
000180 3a ed 0c 3d d9 2c 50 bd f2 4b 4e bd 36 6a 8e 3d
       0.034405924 -0.05082402 -0.050365396 0.06953852
000190 ec 53 c4 bc 64 1e 29 bd 56 3d cd bb a6 3e d7 bc
       -0.023965798 -0.04128875 -0.0062634153 -0.02627499
0001a0 3d 66 43 bd 87 8e dd bc fd d8 1a 3d e4 e3 50 bc
       -0.047704924 -0.027045501 0.037804592 -0.012749646
0001b0 16 ae 9f 3c 2f 97 ec bc 01 e8 81 3d b5 d8 89 3d
       0.01949219 -0.028880684 0.06343079 0.06730787
0001c0 8a fc 2e bc 7e dc e8 3c 05 ca e0 39 d7 70 84 bd
       -0.010680327 0.028425451 0.00042875126 -0.06466835
0001d0 f8 db 63 bd cf c4 8d 3d e1 3b 74 bd a6 b8 64 bd
       -0.0556297 0.06922304 -0.059627417 -0.055840157
0001e0 b0 58 76 bc 33 04 05 bd 40 dc 0b bd 28 8f a8 bc
       -0.015035793 -0.032474708 -0.034145594 -0.020576075
0001f0 98 71 0f 3d 19 22 5a bd ac 0c 12 3c dd 77 40 3d
       0.03502044 -0.053255174 0.008914154 0.04698931

weight f4 [64, 128]
000000 62 da e3 bd 16 28 64 bc 7b b0 82 3d 17 7b 0e bc
       -0.111256376 -0.013925573 0.06381317 -0.008696339
000010 73 50 4b bc 2c 48 ec 3d 12 5a a2 bd 64 bb 2b 3d
       -0.012409317 0.11537203 -0.07927336 0.041926757
000020 ff f4 4c 3b 51 79 12 3c 10 08 a9 3d 24 81 d5 bc
       0.0031273959 0.008940057 0.08253491 -0.026062556
000030 77 53 51 3d 42 e2 69 3c 7d 1c 95 bd 2b 94 c6 bc
       0.05110499 0.0142751355 -0.07280824 -0.024240574
000040 b8 be ac 3c f2 8f 84 3d d5 cb 1b bd 18 3f e2 ba
       0.021087036 0.06472768 -0.038036186 -0.0017261235
000050 a0 72 87 bd 36 13 24 bc a0 a6 53 3d 7c a5 b4 3d
       -0.0661366 -0.010014346 0.051672578 0.08820626
000060 f3 e0 32 3c 5e 37 97 bd 9f c8 8d 3d f1 e0 3a bd
       0.01091789 -0.07383607 0.06923031 -0.045624677
000070 af f9 a9 3d 48 a4 ce 3d 43 ba 1e bd 14 a7 45 3d
       0.082995765 0.10089928 -0.03875185 0.04825504
000080 58 9e 96 3d e6 0f 05 3d d3 c0 0b 3b 02 95 c0 3d
       0.073544204 0.032485865 0.002132465 0.09403421
000090 9e 6c 45 3d 4e c8 46 bc 63 dd f1 3c 83 c7 64 3c
       0.04819929 -0.012132717 0.02952451 0.013963583
0000a0 f4 d1 de bc 0b 2c c2 3d 25 fb c4 bd 21 f1 5d bd
       -0.027199723 0.09481057 -0.096182145 -0.054185037
0000b0 ec 31 be bd f0 4b f9 3c 62 7d c4 3d 10 98 02 3d
       -0.092868656 0.030431718 0.095942274 0.0318833
0000c0 30 6c f1 37 e7 26 87 3d d0 d0 06 bd cf 4b 9a bd
       2.8779818e-05 0.06599217 -0.032913983 -0.075339906
0000d0 3d ca 83 3d dc 88 a8 3d 2f 8a f1 bd ef 10 5b 3d
       0.06435058 0.08229229 -0.117939346 0.053482946
0000e0 1f a2 17 3c 2f e4 c2 3d d0 bc b6 bd 13 1a 4e 3d
       0.009254961 0.09516179 -0.08922732 0.050317835
0000f0 e9 b4 57 bd 7f 1e eb bc 24 eb ae 3d 1d df 00 bd
       -0.052662764 -0.028701065 0.08540943 -0.031462777
000100 87 6c 8f 3d 81 ba 42 3d e1 a1 c0 3c c2 56 d7 3d
       0.07003122 0.047541145 0.02351469 0.105145946
000110 a3 d4 62 3d 4a 20 ac bc 00 15 b5 ba c1 ad 21 bd
       0.055378567 -0.02101149 -0.0013815463 -0.039472345
000120 93 d5 9d 3d 2a f9 ac bd 7c 2b 16 3b 28 a5 8b 3d
       0.07706752 -0.08445962 0.0022914102 0.068186104
000130 09 99 45 3d d9 d0 a1 bc 34 1e 8b bd 46 9e 86 3d
       0.04824165 -0.019752907 -0.0679287 0.06573157
000140 80 b4 81 3d b7 39 18 bd d1 2d 59 3d 68 52 a4 bd
       0.06333256 -0.037164416 0.05302221 -0.0802353
000150 80 58 1c bd 73 d7 db 3d 56 db 38 3d 72 fa 4a 3d
       -0.038170338 0.10734453 0.04513105 0.04955525
000160 a0 53 82 bd de aa a9 bd 3d 6e 79 3d c8 b5 9a bd
       -0.063636065 -0.082845435 0.060896147 -0.07554203
000170 82 b1 5b bc 60 11 3f bd 3c 9d ba bd 12 22 a1 bd
       -0.01340902 -0.04664743 -0.09112021 -0.078678265
000180 c0 2b bf 3d 60 95 95 bb 5a 05 1d 3d aa 6b 76 bd
       0.093345165 -0.004564926 0.03833518 -0.06016127
000190 c3 22 8a bd 80 e7 8d bd 1d d4 c9 bd 72 6c 91 bd
       -0.067449115 -0.06928921 -0.098549105 -0.071007624
0001a0 81 2b 00 bd e8 b2 b3 bd eb f8 39 bc 46 56 d5 bd
       -0.03129149 -0.08774358 -0.011350851 -0.10416846
0001b0 92 7a d5 3d 80 d9 92 bd 0c 73 ed 3d 18 f7 a1 bd
       0.10423769 -0.07170391 0.11594209 -0.079084575
0001c0 97 f2 a9 bd 10 78 53 3d 28 ea 98 3c 94 99 8d 3d
       -0.082982235 0.051628172 0.018666342 0.06914058
0001d0 23 9d 67 bd ed e2 c6 bd 67 ee 0c bd 82 90 84 3d
       -0.05654634 -0.097112514 -0.034407046 0.06472875
0001e0 4a a6 d2 3c 66 62 07 3c e3 9a 14 3d 5b 90 09 bc
       0.025714058 0.008263206 0.036280524 -0.008396233
0001f0 5c 06 c0 bc e8 e6 08 3d 00 45 c2 3d 6a 59 54 3d
       -0.023440532 0.033423334 0.09485817 0.051843084
000200 3b df 4b 3d c2 5e 19 3d 96 bc e9 bc 47 ba 85 3d
       0.049773436 0.037443884 -0.028532308 0.0652967
000210 d2 7a c9 3c eb 44 65 3d ee 86 53 bd 84 1b 1d bd
       0.024594698 0.05597393 -0.05164235 -0.03835632
000220 79 5d 9e bb ca 62 a6 bc b9 95 37 bd 97 9e ce bd
       -0.00483292 -0.020310778 -0.04482052 -0.10088842
000230 f0 33 32 bd c0 cf dd 3a 58 8f 81 bd 3b 32 6f bd
       -0.043506563 0.0016922876 -0.06326169 -0.058397513
000240 38 da 2b 3c e6 9d 34 3c 3d 55 11 bc a4 d3 37 bd
       0.010489039 0.011023974 -0.00887042 -0.04487957
000250 43 48 4f 3c c4 27 ae 3d 44 ba 68 bd 64 49 78 3d
       0.012651506 0.085036784 -0.05681826 0.060616866
000260 03 50 4a 3b 01 73 7a 3d f8 e7 8d bc 14 5c 02 bd
       0.0030870445 0.061144833 -0.017322525 -0.031826094
000270 54 5d a6 3d ff 95 f2 3b 5b c2 a8 bd 9c ca 75 3d
       0.0812327 0.007403135 -0.08240195 0.060007676
000280 e9 8b b7 3d c1 6c b7 3b c3 04 c3 3c e3 bc 76 3d
       0.089622326 0.0055976813 0.023805982 0.06023873
000290 bf 52 94 bd 75 f9 ad 3c 43 2f 3c 3c 05 c9 c9 bc
       -0.07242345 0.021237114 0.011485877 -0.024631986
0002a0 83 b7 72 3d cb 33 eb 3d 86 71 91 bd cd 06 ee bc
       0.05925704 0.11484488 -0.07101731 -0.029055977
0002b0 cb c5 56 bd a0 eb 92 b9 ff c4 ce bc 20 06 7e 3c
       -0.052434724 -0.00028022844 -0.02524042 0.01550439
0002c0 4e 5a 3e 3d d6 6f 02 bd 31 82 b4 3d 80 3e 8f 3d
       0.04647284 -0.031844936 0.088138945 0.06994343
0002d0 7d a5 69 3d bf 27 a2 bd 60 88 8e 3d 5d 55 44 bd
       0.057042588 -0.07917737 0.06959605 -0.04793297
0002e0 cd 71 84 3c 0c 39 a8 3d b1 fa 00 bd 0c 76 85 bd
       0.016167546 0.08214006 -0.031489078 -0.06516656
0002f0 73 d8 63 bd 85 ed 3f 3d 11 3d 86 3b fc 03 9b bd
       -0.055626344 0.046857376 0.004096635 -0.07569119
000300 78 d8 d0 3d f8 26 21 bd 04 b8 ee 3d 7a 5d 50 bd
       0.10197538 -0.039343804 0.11656192 -0.050870396
000310 6c 7f a1 3d e6 9c 91 bd d0 cf 5c bd b5 e9 84 3d
       0.07885632 -0.07110004 -0.053909123 0.064898886
000320 45 3f 64 3c da 0f 81 bc a0 9d 96 3d ff b6 43 3d
       0.0139311 -0.015754629 0.07354283 0.04778194
000330 02 47 91 3c 18 82 9b bc 78 5f 50 3d 05 72 55 bd
       0.017734054 -0.018982932 0.050872296 -0.05211069
000340 6c 8f 95 bd 15 72 af 3c 05 a5 92 bc 77 21 8d 3d
       -0.07302746 0.021416703 -0.017900953 0.068911485
000350 9b f3 8a bd 17 d1 9f 3d 26 07 1f 3d bc a4 76 3d
       -0.06784745 0.078035526 0.038825177 0.060215697
000360 a2 58 f7 bc 7e ac 69 bd f6 db 15 3d d8 e6 ea ba
       -0.03019363 -0.057049267 0.036586724 -0.001792158
000370 17 ab 8c 3d 6e c2 2c bc 06 db 71 bc 5a 74 6b bd
       0.0686857 -0.0105444025 -0.014761692 -0.05748401
000380 39 6a ba 3d 30 55 d2 bc 22 f2 65 bd 31 28 73 3d
       0.091022916 -0.025675386 -0.05613912 0.0593645
000390 9e 21 af 3c c7 95 31 3d a2 d3 0d bd 61 fc 3e 3c
       0.021378335 0.04335573 -0.034625657 0.0116568515
0003a0 bc 8a 6e 3d 4d f9 3f bd a2 50 37 3d 68 91 a6 3b
       0.058237776 -0.04686861 0.04475463 0.0050832517
0003b0 41 34 f5 3b 87 80 f3 ba 8a 1c 0c 3d 7a 76 5c bd
       0.007483036 -0.0018577733 0.034206904 -0.053823926
0003c0 61 c6 54 3d f3 66 60 bd 5a ea 77 bd d2 04 11 3c
       0.051947 -0.05478568 -0.06052623 0.008851247
0003d0 6e 80 77 bd 79 de 56 bd 67 01 96 bd 74 fb 87 3d
       -0.060425214 -0.05245826 -0.07324486 0.06639758
0003e0 02 79 13 3d 84 14 37 bc a9 0a 89 bd 4c d0 93 bd
       0.036004074 -0.011174325 -0.066914864 -0.07217464
0003f0 0f 00 68 bc 76 79 27 3c 84 86 ee 3c a7 34 c4 3d
       -0.01416017 0.01022183 0.029116876 0.09580355

bias f4 [64]
000000 c4 92 cf 3d 6c 7a ce bc 96 31 33 3d b9 1a 9c bd
       0.10135415 -0.02520486 0.04374846 -0.076222844
000010 a2 a4 d3 bb 96 ab cb bb 7a 11 a3 bc ee 40 35 bd
       -0.0064588347 -0.006215523 -0.019905794 -0.044251375
000020 7f 65 97 3c c8 3d 8c 3d b7 4a 8b bd 8a 5c a5 3d
       0.018481014 0.06847721 -0.0680136 0.08074291
000030 d7 42 5b bd 28 59 45 bd e9 2f 7a bd 35 67 35 bd
       -0.05353054 -0.04818073 -0.061080847 -0.04428788
000040 b3 c7 39 bd 45 2b 3c 3d ef 39 96 bd a2 6c 6b 3d
       -0.045356464 0.045939703 -0.07335269 0.057476647
000050 a8 2e ab 3d e9 8e d8 bd f9 47 98 bd 79 1d 75 bd
       0.08358508 -0.10574133 -0.07435603 -0.05984256
000060 cc 9b a3 bd 33 01 7d 3d 47 40 c5 3c 92 b9 25 bc
       -0.079887 0.06176872 0.024078501 -0.010115044
000070 39 6d 8b 3d 5b 15 9e 3c ed 36 b1 bc a6 75 bc 3b
       0.06807942 0.019297292 -0.021632636 0.0057513295
000080 fb ba 3f bc 18 b3 43 bd f5 31 34 3c 19 a4 3c bc
       -0.011702294 -0.04777822 0.010998239 -0.011513733
000090 f4 a1 e2 bc 1a 84 71 3c a2 70 c6 3c 00 08 67 bc
       -0.027665116 0.014740968 0.02422363 -0.014101028
0000a0 89 f7 55 3d 44 ae 0c 3d 6d 69 2a bc 6e 3d 8c bc
       0.05223802 0.03434588 -0.010401112 -0.017119136
0000b0 b6 8e 34 bd 4e fd 9e 3c 9c e7 5c 3b ad 27 62 3d
       -0.044081412 0.019407894 0.0033707386 0.05521362
0000c0 32 5c 73 bc aa 8a b2 3c 45 15 93 3b 2f de 07 bd
       -0.014853524 0.021794636 0.0044886195 -0.033170875
0000d0 63 94 ca bc 0b 19 77 3b 1a db e8 bc fd ac 9f 3d
       -0.02472896 0.0037704136 -0.028424788 0.07796667
0000e0 16 08 57 3d 74 86 da 3c 5d 3d b6 3c c0 8d b3 3d
       0.052497946 0.02667544 0.022246057 0.08767271
0000f0 ba 68 9f bd 72 6a 0f 3d 4e 60 f0 3c 26 dc 4f bd
       -0.07783647 0.035013624 0.029342797 -0.05074706

weight f4 [6, 64]
000000 92 ba ba 3d cd 7e d9 3b 4e 07 00 bd 05 f1 7e 3d
       0.09117617 0.0066374303 -0.031256966 0.062241573
000010 63 27 10 3e 90 b0 a2 bc cf f4 51 bc ee 65 ce 3d
       0.14077525 -0.019859582 -0.012814715 0.10078035
000020 84 3c 9b 3d 34 68 42 bc 11 6b 5f bc d7 be da 3d
       0.07579902 -0.011865664 -0.013636366 0.10680931
000030 5f 3c 5f bc 39 81 d5 bd 9e f5 8f bd 23 bf 72 3c
       -0.013625233 -0.10425038 -0.0702927 0.014816078
000040 4c e8 60 3d f0 a7 31 3d f2 52 5b bd af 46 cb 3d
       0.054909036 0.04337305 -0.0535459 0.09925591
000050 15 09 24 3c 18 ab 22 3d d3 1c 93 3d af 86 ab bb
       0.010011931 0.03971395 0.07183232 -0.0052345614
000060 e1 26 ac 3d dc 42 db bc 0d c2 82 bd f1 5c c9 bd
       0.08405853 -0.02676528 -0.063846685 -0.0983218
000070 4a ab 83 bd 93 41 58 3d 85 8f a1 bd 4a ec 05 3d
       -0.06429155 0.05279691 -0.07888702 0.032696046
000080 07 70 e3 bc f7 40 ca 3c 96 3a 84 3c 0d 40 c8 bd
       -0.02776338 0.02468918 0.016141217 -0.09777842
000090 6d d6 e9 bc 3a 61 b7 3d a4 36 3e bd 92 f5 d5 bd
       -0.028544629 0.08954091 -0.046438828 -0.104472294
0000a0 fb 24 e0 3d 67 7b 01 3e 25 70 90 3d f1 ea 91 bd
       0.109445535 0.1264473 0.0705264 -0.0712489
0000b0 1d 9c fc 3c e2 5f 72 3d 79 29 54 3d ea 55 c0 3d
       0.03083616 0.059173472 0.051797364 0.09391387
0000c0 b5 af b7 3d 26 9f 93 3c 2e 43 1e bd f0 c1 e0 3d
       0.0896906 0.018020224 -0.038638286 0.10974491
0000d0 b5 49 ce bb b0 07 0c be a9 b8 d4 3d e5 28 7a 3d
       -0.0062954077 -0.13674808 0.10386784 0.061074156
0000e0 d7 3c 3c 3d b1 c2 7a 3d 0f e3 bd 3d cc ba cb 3d
       0.04595646 0.06122083 0.092718236 0.09947738
0000f0 95 59 94 bd 63 be 8c 3c c7 22 d9 bb 07 73 aa bc
       -0.07243649 0.017180627 -0.0066264602 -0.020806802
000100 b6 db 28 bd eb 93 0d bd 85 66 93 bd d1 50 3f bc
       -0.041225158 -0.034564894 -0.071972884 -0.011676983
000110 20 ef af bc 83 2f 14 3e 3b d8 d0 bd 31 13 18 3d
       -0.021476328 0.1447125 -0.10197493 0.037127677
000120 85 fb f4 3c a3 28 be bd 0f 06 7c 3d 7d c1 c3 bc
       0.02990509 -0.092850946 0.061529215 -0.023895973
000130 89 00 68 bd 6b 9a a9 3d 4d 5f 4f 3d 39 83 13 3d
       -0.056641135 0.08281406 0.050627995 0.036013816
000140 e4 e9 14 bb c6 92 81 bd 94 21 a3 3c e1 26 5b bd
       -0.0022722417 -0.06326823 0.019913472 -0.053503875
000150 4f ee c1 3d bf 4e c5 3d 68 78 bc 3d d3 d0 c1 bc
       0.09469282 0.0963416 0.09202653 -0.023659145
000160 1f de c0 3d e6 3c c3 bc ec 8c 24 bc 80 df 43 bd
       0.09417366 -0.02383275 -0.010043364 -0.047820568
000170 fe 5e 1e bd d8 34 00 3e ff 44 cd 3d 79 9d 92 3c
       -0.03866481 0.12520158 0.100229256 0.017897354
000180 20 db d9 bd ba c6 03 3e ca d3 a3 bd b5 c3 7e 3d
       -0.10637498 0.12868777 -0.0799938 0.06219836
000190 26 7e bc bc 30 85 f5 bc 5c 51 50 3d 54 1d c7 bd
       -0.023009371 -0.029970735 0.05085884 -0.09722391
0001a0 89 b3 cf bd 92 97 49 3c 9b bb b8 3d 33 ac e2 3c
       -0.101416655 0.012304204 0.09020158 0.027670002
0001b0 0a e6 0f 3e 10 b6 b4 3c fc 5a fa bd 82 f7 59 bc
       0.14052597 0.02205947 -0.12224385 -0.013303639
0001c0 cb b6 df 3c 57 6f 15 3d 20 67 1f 3c 7b ae 90 bc
       0.027308842 0.036483135 0.009729177 -0.017661324
0001d0 40 fe aa bd 34 5f 75 3d 5e 0d fd bd 23 81 aa bd
       -0.083492756 0.059905246 -0.12356065 -0.08325412
0001e0 c1 de 94 bc 29 40 86 bd 4f 76 17 bc 1c a4 f4 bd
       -0.018172624 -0.06555206 -0.009244516 -0.11945364
0001f0 8a 67 d5 bd d2 ae 29 3d 45 aa 29 bd 68 3b 98 3d
       -0.10420139 0.041426487 -0.041422147 0.07433206
000200 f9 76 8b bc 18 18 0a 3e c3 47 2f 3e 4c 53 16 be
       -0.017024504 0.13485754 0.17117219 -0.14680213
000210 3b a1 58 bd 04 7b b5 bd 77 58 97 3d cb 3f d3 bd
       -0.052888136 -0.08861354 0.0738992 -0.10314902
000220 31 21 02 3e 14 43 f3 3d 42 c3 bf 3d 5b 32 7c 3d
       0.12707974 0.118780285 0.09363414 0.06157146
000230 ee 9d 91 3c ab 72 a5 3d c5 31 3f 3b 34 a0 0c 3e
       0.017775502 0.08078512 0.0029173952 0.13732988
000240 cf 3c 08 bd 39 e7 69 3c da 5b 41 bd 56 39 38 3e
       -0.033261117 0.014276319 -0.047206737 0.17990622
000250 ff 90 09 3e 24 f5 56 bd 52 f3 39 3d 5b d4 21 be
       0.13434218 -0.052479878 0.045398064 -0.15803663
000260 ff f6 2c 3c df 7f a7 bd 2b ed 42 3d 60 2e 4a bd
       0.010556935 -0.08178686 0.047589462 -0.049360633
000270 0a 33 54 3d 96 6b 7f 3c 1e e5 07 be 34 1f a7 bc
       0.051806487 0.015589615 -0.13270995 -0.020400621
000280 bc 89 b3 3d 41 ef 0c bd 59 76 ad bc 4d 80 9e bd
       0.08766505 -0.034407858 -0.021174597 -0.07739315
000290 e3 7e de 3d e6 fa 01 3e 93 21 cb 3c c4 b4 d2 3d
       0.108640455 0.12693366 0.024796283 0.102883846
0002a0 0a 4f ab 3d 61 a5 3e 3d 91 ea fa bd 0d 66 7e bd
       0.08364685 0.046544436 -0.12251771 -0.062109042
0002b0 ac 34 38 be 68 10 01 3d bf 20 a8 3a 76 51 53 bd
       -0.17988843 0.031509787 0.0012827142 -0.05159136
0002c0 6e e0 3b 3d a6 01 90 3c 29 36 20 3d da 03 39 3c
       0.04586833 0.017578911 0.03911415 0.011292422
0002d0 9b 55 d8 bd 2c 0b 0f be f3 b3 97 bc c8 7f 21 3d
       -0.10563203 -0.13969105 -0.018518424 0.039428502
0002e0 67 46 7b 3c be e6 8d bd 09 0a 9d bc ce 93 a3 bb
       0.015336609 -0.06928776 -0.019169824 -0.004991985
0002f0 72 a3 13 bd 97 31 4d bd 04 e0 3d bd 1b d2 05 be
       -0.036044545 -0.05009612 -0.046356216 -0.1306843
000300 3c 01 db bd dc c8 e1 3d 84 d5 67 3d d3 0f bd bd
       -0.10693595 0.11024639 0.05660011 -0.09231534
000310 20 30 98 3d ec 0b f8 3b c5 7a 87 3d a5 2d b1 3d
       0.07431054 0.0075697806 0.06615213 0.08651284
000320 43 97 0e 3d b2 e0 37 bc 31 dd f8 3c 9b b6 82 bd
       0.034812223 -0.011223005 0.03037891 -0.063824855
000330 e8 c6 8a bb b5 b5 a6 3c 38 36 5c bd 3a 5e 5e bd
       -0.0042351373 0.020350317 -0.053762645 -0.05428908
000340 b9 ae a8 3d 9c 97 d7 bd 6a 7b 9e 3d db ad 44 3c
       0.08236451 -0.10526964 0.07738383 0.012004341
000350 08 31 b6 3c 36 10 3c bd 52 92 81 bd 6a 92 87 3d
       0.022240177 -0.045913897 -0.063267365 0.06619723
000360 a5 91 ca bc 5e b0 ca 3d 9b 1a b4 3d b0 8a 47 3c
       -0.024727652 0.098969206 0.08794137 0.012179062
000370 d2 07 ad 3d 0e c5 b7 bd 77 ef 88 3d 3d 28 74 bd
       0.08448757 -0.08973132 0.06686299 -0.059608687
000380 04 a5 64 bd 01 0e e5 bd 3e 9c ce bd ea e8 f8 bd
       -0.055821434 -0.11184312 -0.100883946 -0.121538
000390 f2 03 96 3b e1 65 9d 3d e8 be db bd ad 98 bd bd
       0.004578107 0.076854475 -0.10729772 -0.09257636
0003a0 e2 d7 12 3d 86 9c 6e bc 30 be ae bd 77 cb 62 bd
       0.035850413 -0.014563685 -0.08532369 -0.05536982
0003b0 bd 1d e6 bd 21 dd 10 bd 06 6b e8 3b ca 04 a5 3d
       -0.11236141 -0.035367135 0.0070928363 0.08057554
0003c0 c7 a6 a3 bc 03 57 e2 3c 53 eb 0f 3d 16 8c 9e 3b
       -0.019976987 0.027629381 0.035136532 0.004838477
0003d0 93 c4 8a bc 72 cf ef 3b a9 c9 e7 bd 52 41 8c 3d
       -0.016939437 0.0073184306 -0.113177605 0.06848396
0003e0 fa cf b3 3d cf 40 ae bd a4 a6 5c 3d a1 fd c4 3b
       0.08779903 -0.08508455 0.05386986 0.0060116802
0003f0 73 27 1b 3d e9 7f b4 bd 82 be ae 3d 20 4d f4 3c
       0.03787942 -0.088134594 0.0853243 0.029821932

bias f4 [6]
000000 61 4f 9d 3d 64 53 94 bd 8f a0 a1 3d fa f0 b9 3d
       0.07681156 -0.07242468 0.07891952 0.09079166
000010 78 ec 19 3b d9 8c b2 bd
       0.0023486894 -0.08718271
