model.pth (torch, 282183 bytes, 10 tensors)

weight f4 [128, 216]
-0.042749554 -0.018320315 0.028475396 0.33292148 -0.45151174 -0.06417537 -0.33088386 0.05347426
0.017870698 -0.016271507 -0.025078846 -0.036905162 0.12100433 -0.044374168 -0.5610272 -0.20586339
-0.6740577 0.2615808 0.06104519 -0.050993655 -0.03163695 0.4340277 -0.18080837 -0.17671496
-0.24201816 -0.46561357 -0.2553762 0.18177886 0.45876986 -0.014374103 0.43924654 -0.0018875238
-0.11678038 -0.4317308 -0.55818766 -0.5419747 -0.46633214 -0.8193225 -0.18759926 0.24462508
-0.18222195 -0.20323823 0.025813501 0.22252572 0.29049334 0.12453619 0.28136054 -0.4934422
-0.05306986 0.17533079 -0.6138727 -0.25724044 0.03627728 0.15963544 0.82945794 0.5544397
0.46754944 -0.5069193 -0.370895 -0.15656036 0.22134554 -0.19968684 -0.03817876 0.55919665
0.5616646 0.27398014 0.17818053 -0.21085984 -0.28075075 0.16345981 0.0581111 -0.15427901
0.47043678 0.23870768 0.5630782 0.07380894 0.025843285 0.18439984 0.16514106 -0.027071185
-0.14554158 0.13484895 0.06833529 0.36688042 0.52234405 0.3220878 0.24070038 0.1673425
0.2154082 -0.13948408 -0.010384705 -0.06637454 0.63341457 0.2276295 -0.23951161 0.036274157
-0.055717308 0.16602266 0.19612129 -0.022903038 0.10228406 -0.05454547 -0.008116395 0.19924845
0.2610964 0.056834552 -0.19701666 -0.020664485 -0.12587701 -0.49259177 -0.1699215 -0.003728229
-0.073034145 0.10905744 0.38202783 0.35695764 0.0992408 -0.7282946 -0.03262909 0.038078655
-0.1043177 -0.003262579 0.20360078 0.35681933 0.5763527 0.40481263 -0.13233417 -0.22480257
-0.16045327 -0.19677694 -0.32550845 -0.25550678 -0.018432267 0.19675557 0.3450795 0.0133964475
-0.19277643 -0.1592898 -0.04562163 -0.21535899 -0.22774573 -0.37342477 0.17092907 0.6657503
0.71406597 0.25968114 0.21401912 0.0003480725 0.113373004 0.22302161 -0.15663642 -0.22978006
-0.20811261 0.58427984 0.21812452 0.38014016 0.120408505 -0.046703316 0.41481453 0.4132637
0.24389744 -0.09527973 -0.22131841 0.21585208 0.19483112 0.35423374 0.13415039 0.00259237
0.27375436 0.33256486 0.5991386 0.35630935 0.0718813 0.18389076 0.21871068 0.098104596
-0.037286237 0.22104342 0.44432628 0.11129616 0.45477617 0.5095765 0.2401936 0.14335625
-0.10773088 0.024529858 -0.11825432 -0.214805 0.041348644 0.20621628 0.84418213 0.5632064
0.056230538 -0.31820104 -0.019650737 0.21139751 0.11346013 0.29700524 -0.15437075 -0.23528256
0.59785974 0.7405166 0.76338917 1.0763175 0.4056052 0.58167285 0.84247476 1.198251
0.57936203 0.5729631 0.7145352 0.9256249 0.056132548 0.42824462 0.03029843 -0.013105396
0.024993103 -0.01179052 -0.047406595 -0.00024040914 0.15065575 0.25339887 0.24628195 -0.021644132
-0.006107383 -0.020023223 -0.027324812 -0.018477956 -0.3418092 -0.40879804 -0.33580318 0.01590316
-0.24448505 0.0045541837 -0.015312541 -0.04976924 0.028797125 -0.5232548 0.4554216 -0.5050851
-0.57339317 -0.28597462 -0.25483918 0.6844088 -0.18571424 -0.025868695 -0.50354475 0.15215729
0.08872929 0.26097646 -0.32454798 -0.2760206 0.26505986 0.28905797 -0.010042771 -0.40382835
00000000: 281a 2fbd 7c14 96bc 3c45 e93c af74 aa3e
00000010: 8c2c e7be 606e 83bd 9c69 a9be d307 5b3d
00000020: 9265 923c d34b 85bc 2772 cdbc de29 17bd
00000030: 1ed1 f73d b0c1 35bd 7b9f 0fbf dacd 52be
00000040: 0c8f 2cbf ebed 853e 850a 7a3d b9de 50bd
00000050: bf95 01bd e138 de3e d425 39be c4f4 34be
00000060: 9cd3 77be e764 eebe abc0 82be 3d24 3a3e
00000070: e2e3 ea3e 5c81 6bbc ece4 e03e ca66 f7ba
00000080: 8d2a efbd d20b ddbe 63e5 0ebf dbbe 0abf
00000090: 16c3 eebe 1fbf 51bf 051a 40be ff7e 7a3e
000000a0: 6498 3abe af1d 50be d676 d33c c8dd 633e
000000b0: 8bbb 943e d40c ff3d 7d0e 903e 75a4 fcbe
000000c0: c85f 59bd ea89 333e c326 1dbf 05b5 83be
000000d0: 7c97 143d 7977 233e 5b57 543f c3ef 0d3f
000000e0: a462 ef3e 77c5 01bf f3e5 bdbe 5c51 20be
000000f0: 68a8 623e b57a 4cbe 5561 1cbd 8327 0f3f
00000100: 40c9 0f3f 2047 8c3e f574 363e a4eb 57be
00000110: 90be 8fbe 0262 273e e805 6e3d 51fb 1dbe
00000120: 17dd f03e c96f 743e e525 103f 2429 973d
00000130: 4cb5 d33c 50d3 3c3e bd1a 293e 64c4 ddbc
00000140: da08 15be d815 0a3e 5ff3 8b3d c0d7 bb3e
00000150: 57b8 053f b1e8 a43e 297a 763e d55b 2b3e
00000160: f893 5c3e ead4 0ebe 9c24 2abc 60ef 87bd
00000170: 7527 223f b517 693e 8842 75be 3694 143d
00000180: d537 64bd d801 2a3e 05d4 483e 279f bbbc
00000190: 4e7a d13d 126b 5fbd a1fa 04bc c907 4c3e
000001a0: 6dae 853e 59cb 683d bcbe 49be 9148 a9bc
000001b0: e7e5 00be fd34 fcbe e7ff 2dbe 4e55 74bb
000001c0: ed92 95bd 8259 df3d 2799 c33e 27c3 b63e
000001d0: c33e cb3d 8471 3abf 15a6 05bd 5df8 1b3d
000001e0: 85a4 d5bd fed0 55bb b97c 503e 06b1 b63e
000001f0: da8b 133f 9a43 cf3e 9c82 07be a532 66be
00000200: dd4d 24be e57f 49be 0ba9 a6be c9d1 82be
00000210: 44ff 96bc 4b7a 493e 43ae b03e c67c 5b3c
00000220: 2f67 45be de1c 23be bfdd 3abd 1187 5cbe
00000230: 2d36 69be 8831 bfbe 0808 2f3e 9d6e 2a3f
00000240: 07cd 363f edf4 843e d427 5b3e 807d b639
00000250: 1b30 e83d c75f 643e 4c65 20be 774b 6bbe
00000260: 791b 55be 5d93 153f 095c 5f3e bba1 c23e
00000270: bc98 f63d fa4b 3fbd 9262 d43e 4d97 d33e
00000280: 40c0 793e 0522 c3bd 4ba1 62be 5408 5d3e
00000290: cf81 473e 205e b53e b85e 093e c0e4 293b
000002a0: 8829 8c3e f145 aa3e 2661 193f 2e6e b63e
000002b0: 8136 933d dc4d 3c3e b1f5 5f3e 10eb c83d
000002c0: 74b9 18bd 3559 623e bc7e e33e 3eef e33d
000002d0: 6cd8 e83e 9b73 023f 50f5 753e fbcb 123e
000002e0: 02a2 dcbd d7f2 c83c 522f f2bd d8f5 5bbe
000002f0: 325d 293d 5c2a 533e 521c 583f 4b2e 103f
00000300: fe51 663d 3feb a2be 95fa a0bc 9778 583e
00000310: c95d e83d 1211 983e 5e13 1ebe e9ed 70be
00000320: 560d 193f 7f92 3d3f 796d 433f c6c4 893f
00000330: 7cab cf3e 83e8 143f 6dac 573f 4a60 993f
00000340: 1251 143f b6ad 123f c7eb 363f c1f5 6c3f
00000350: 3eeb 653d e142 db3e 6a34 f83c 04b8 56bc
00000360: 56be cc3c 062d 41bc 6b2d 42bd 5616 7cb9
00000370: 8045 1a3e 7fbd 813e 5631 7c3e 094f b1bc
00000380: 7120 c8bb be07 a4bc 49d8 dfbc 155f 97bc
00000390: 9e01 afbe fa4d d1be 65ee abbe 5847 823c
000003a0: 4a5a 7abe 433b 953b 74e1 7abc d5da 4bbd
000003b0: f3e7 eb3c 07f4 05bf 052d e93e 424d 01bf
000003c0: e5c9 12bf 446b 92be 487a 82be 6a35 2f3f
000003d0: e02b 3ebe 96ea d3bc 4fe8 00bf 1fcf 1b3e
000003e0: b4b7 b53d b59e 853e 272b a6be 9252 8dbe
000003f0: edb5 873e 68ff 933e 6f8a 24bc 97c2 cebe

bias f4 [128]
0.798265 -0.030137237 -0.37178582 -0.36927372 -0.6359246 -0.40015393 0.004486693 0.1455855
0.18569152 -0.39397424 -0.38032523 -0.26195794 0.2723029 -0.16068728 -0.6218348 0.12982123
0.44804364 -0.35571507 -0.015056822 -0.054944508 -0.25215778 -0.30592152 0.37744108 0.059630103
0.48366275 -0.13992919 -0.35067147 0.0056134434 -0.35637403 0.08551126 0.086623415 -0.5293807
-0.5028335 0.3079139 0.0934917 0.4345501 -0.6690613 -0.5296786 -0.29239812 -0.13611448
-0.25263813 0.62881386 -0.16312486 0.25755492 0.0034480446 0.32405683 0.51671255 -0.21207798
-0.3034977 0.07934157 -0.3304898 -0.5589009 0.2985465 0.23626548 -0.16760923 0.64059216
0.56386197 -0.27304518 -0.28307945 -0.5417922 -0.8122959 0.33736035 -0.18237731 0.25218335
-0.3342695 -0.37119454 -0.4170472 -0.07024457 -0.7714035 0.064699784 -0.044677462 -0.29110894
0.4277634 -0.3264765 0.2007733 0.24694775 0.1566387 0.1963551 0.21157669 -0.3413373
-0.16400795 0.114314534 0.023894776 -0.06145562 -0.48088828 0.2845802 0.7582344 0.3343944
-0.56027967 0.7086837 -0.54603666 0.4116119 0.36883634 0.66633344 0.33447665 0.038856808
-0.16187474 0.4918427 -0.13179506 0.67758113 0.25706062 -0.34963012 -0.34097403 0.523956
-0.2481617 0.6177054 -0.3836774 0.6803912 0.63274914 0.5233421 0.32334906 -0.07447866
-0.29959726 0.26517567 0.100530356 0.3070478 0.06574748 -0.36964062 -0.2815954 -0.067721665
0.17072438 -0.14014257 -0.3898583 0.075053826 0.51956165 -0.07133456 -0.42445225 0.09700756
00000000: 185b 4c3f 5ee2 f6bc b65a bebe 7211 bdbe
00000010: f4cb 22bf fae0 ccbe 1c05 933b 5e14 153e
00000020: eb25 3e3e feb6 c9be fdb9 c2be 5a1f 86be
00000030: 496b 8b3e 358b 24be 9130 1fbf dbef 043e
00000040: fa65 e53e 4920 b6be e4b0 76bc 7e0d 61bd
00000050: d31a 81be bfa1 9cbe f53f c13e b23e 743d
00000060: a5a2 f73e 9949 0fbe 368b b3be faf0 b73b
00000070: a876 b6be 8720 af3d 9e67 b13d 7e85 07bf
00000080: b2b9 00bf e4a6 9d3e 9478 bf3d 5a7d de3e
00000090: 9a47 2bbf 0499 07bf 35b5 95be 9861 0bbe
000000a0: c959 81be f2f9 203f 340a 27be 3dde 833e
000000b0: 97f8 613b c7ea a53e 4647 043f f82a 59be
000000c0: 0d64 9bbe d57d a23d f635 a9be 2114 0fbf
000000d0: 16db 983e 94ef 713e c1a1 2bbe d9fd 233f
000000e0: 4259 103f 94cc 8bbe caef 90be e5b2 0abf
000000f0: a0f2 4fbf 7fba ac3e 1ec1 3abe 2d1e 813e
00000100: 5f25 abbe 360d bebe 3687 d5be 63dc 8fbd
00000110: b37a 45bf 5281 843d b7ff 36bd 3b0c 95be
00000120: ce03 db3e ee27 a7be 8497 4d3e dfdf 7c3e
00000130: e565 203e 5011 493e 8fa7 583e c3c3 aebe
00000140: b3f1 27be bd1d ea3d fabe c33c e3b8 7bbd
00000150: fd36 f6be 7fb4 913e a61b 423f be35 ab3e
00000160: 7d6e 0fbf 4c6c 353f 0fc9 0bbf ccbe d23e
00000170: 1ed8 bc3e d494 2a3f 8640 ab3e 5128 1f3d
00000180: 7ec2 25be ced2 fb3e 49f5 06be f575 2d3f
00000190: 739d 833e b802 b3be 2694 aebe fb21 063f
000001a0: 1a1e 7ebe f121 1e3f 5d71 c4be 1e2e 2e3f
000001b0: d9fb 213f bff9 053f 028e a53e 4588 98bd
000001c0: d064 99be 1bc5 873e dce2 cd3d 5f35 9d3e
000001d0: 9da6 863d 8941 bdbe 462d 90be a8b1 8abd
000001e0: 5fd2 2e3e 8981 0fbe 829b c7be d2b5 993d
000001f0: fe01 053f db17 92bd ce51 d9be e6ab c63d

weight f4 [128, 128]
-0.0084757535 0.0341091 0.071139865 0.05311258 -0.175768 0.03264152 -0.02018143 0.012100039
-0.01512781 -0.050001513 0.07500878 -0.04369204 -0.10899326 -0.021251028 -0.1966391 -0.011798821
0.011163513 -0.103866495 -0.18171617 -0.03363437 -0.08096874 0.053742733 0.039663315 -0.018999476
0.045298282 -0.10320042 -0.004504424 0.03150143 -0.0075526717 0.08027076 -0.11413195 -0.10639102
0.08416092 0.030639704 0.09024882 -0.22402915 -0.029981071 0.020545289 0.006073471 0.03541822
0.035772868 0.08214245 -0.015612723 -0.15942605 -0.016576767 -0.011899059 -0.12882702 -0.03678015
-0.117693126 0.0005326364 -0.017809886 -0.07877867 -0.08411408 -0.011569872 -0.063497216 -0.19847688
-0.11006568 0.00033413296 -0.05772901 0.021281827 -0.05360795 -0.06775615 0.10596108 0.06739605
-0.04715986 0.032320406 -0.06644166 -0.12873715 -0.14408396 -0.060890295 -0.116007015 -0.12131709
-0.07357177 0.06280172 0.032047644 0.19835845 0.011889212 -0.099019706 0.095077656 -0.15806657
-0.07272266 -0.0017132665 -0.05683031 -0.06816295 0.006492533 -0.039699886 -0.086907804 -0.1083759
-0.20924735 -0.03256746 0.08035055 -0.14469983 0.05655576 -0.1057567 0.06777103 -0.027783077
-0.08407963 -0.1360556 0.13587579 -0.115891844 -0.039724052 -0.11415096 -0.010621042 -0.12544376
0.059980553 -0.14616221 -0.030109735 -0.14148259 -0.08673368 0.023198161 -0.10206257 0.041498415
-0.15452684 0.028785164 -0.10367856 -0.08125977 -0.012451794 -0.12868123 -0.06277053 0.007946837
0.03022483 -0.20675014 -0.1150938 -0.17872357 -0.046391238 0.050457496 -0.059390172 0.036742575
-1.1305732 -0.31747213 0.22783323 -0.15735218 0.60272884 0.0026514994 -0.21655788 0.25697008
0.3198239 0.08055671 -0.08583787 0.43814656 0.18516435 0.81934035 0.25255293 0.44468766
-0.0531137 -0.21429552 0.20634118 0.06771153 0.17898974 0.048963368 -0.30609262 -0.070305236
-0.64237815 0.039709914 0.119070455 0.33700746 0.83972704 -0.4132091 -0.1603158 -0.048291955
0.17790997 -0.020588255 0.459117 0.14737575 0.34861958 0.22923869 0.26074484 -1.1400784
0.7509168 -0.32471994 0.08603003 -0.11234265 -0.14549004 -0.53466845 0.21815886 0.07451812
0.1887402 0.17253259 0.1783785 0.1347471 -0.0077313385 0.8461136 -0.040182065 -0.21408461
-0.9021315 0.80906886 0.29079884 0.315641 -0.09678277 0.72071487 0.5611446 0.3128447
0.17909954 0.23093028 -0.10328983 0.09566337 0.3374137 -0.62182444 -0.02265662 0.07666947
-0.5038786 0.53315926 -0.07423697 0.37518743 -0.026426882 0.032530103 -0.303033 0.2229297
-0.18566665 -0.11581848 0.03834876 0.38991833 0.53942525 0.015976707 0.13721174 0.124476545
0.7857994 -0.26644427 -0.08056903 0.41300035 0.23384558 -0.15407823 0.2795189 0.18350042
-0.34411544 -0.8960411 0.32679594 -0.25363356 -0.0188515 0.21903883 -0.7041579 -0.3601276
0.71834767 -0.33614248 0.061179142 -0.5652835 -0.89890385 -1.0533397 0.5264777 0.029547365
0.47074154 0.4546395 0.25875515 0.037922263 0.30027077 0.24932964 0.6723004 -0.11499559
0.22305033 0.32603955 0.08479763 0.13417009 -0.71312666 -0.26100218 0.26716274 0.097168565
00000000: e3dd 0abc fcb5 0b3d c7b1 913d 948c 593d
00000010: 87fc 33be 1db3 053d 8753 a5bc 3e3f 463c
00000020: a2da 77bc 63ce 4cbd 349e 993d 6df6 32bd
00000030: dc37 dfbd a316 aebc c35b 49be d84f 41bc
00000040: 2be7 363c f5b7 d4bd ce13 3abe 31c4 09bd
00000050: f0d2 a5bd 5721 5c3d 0076 223d caa4 9bbc
00000060: b18a 393d be5a d3bd d999 93bb a507 013d
00000070: 677c f7bb ff64 a43d 03be e9bd 89e3 d9bd
00000080: 8f5c ac3d 1e00 fb3c 60d4 b83d e667 65be
00000090: dd9a f5bc 984e a83c f803 c73b b212 113d
000000a0: 9286 123d 4d3a a83d 82cc 7fbc 9540 23be
000000b0: 00cc 87bc 45f4 42bc 3beb 03be c8a6 16bd
000000c0: 1809 f1bd a0a0 0b3a 0ae6 91bc b656 a1bd
000000d0: 0144 acbd 8f8f 3dbc d40a 82bd 863d 4bbe
000000e0: 1e6a e1bd 912e af39 4175 6cbd 3a57 ae3c
000000f0: 0394 5bbd bdc3 8abd 1f02 d93d f106 8a3d
00000100: b32a 41bd 6762 043d 9112 88bd acd3 03be
00000110: bf8a 13be 1a68 79bd 1695 edbd 1875 f8bd
00000120: ccac 96bd 309e 803d 6444 033d 7a1e 4b3e
00000130: f8ca 423c d8ca cabd 13b8 c23d 34dc 21be
00000140: 9eef 94bd af8f e0ba e6c6 68bd 0499 8bbd
00000150: 50bf d43b 599c 22bd b8fc b1bd 2ff4 ddbd
00000160: f044 56be 7565 05bd d48e a43d 312c 14be
00000170: 03a7 673d f896 d8bd 8acb 8a3d 5699 e3bc
00000180: f131 acbd 2952 0bbe 0623 0b3e b458 edbd
00000190: b0b5 22bd fbc7 e9bd e103 2ebc 5474 00be
000001a0: 2bae 753d 8cab 15be b1a8 f6bc d0e0 10be
000001b0: 6da1 b1bd 120a be3c 2e06 d1bd 3efa 293d
000001c0: 493c 1ebe ddce eb3c 6d55 d4bd 866b a6bd
000001d0: 9c02 4cbc 03c5 03be d68d 80bd 7333 023c
000001e0: 109a f73c 4fb6 53be 4cb6 ebbd 5003 37be
000001f0: bd04 3ebd 85ac 4e3d 1c43 73bd 627f 163d
00000200: 9fb6 90bf b58b a2be 1d4d 693e ee20 21be
00000210: 704c 1a3f c7c4 2d3b 59c1 5dbe 9591 833e
00000220: f5bf a33e ebfa a43d c4cb afbd bf54 e03e
00000230: b99b 3d3e 4ac0 513f 9e4e 813e 1aae e33e
00000240: c08d 59bd 4970 5bbe 1a4b 533e 58ac 8a3d
00000250: 1649 373e d08d 483d 2cb8 9cbe 31fc 8fbd
00000260: e572 24bf dda6 223d 36db f33d 3e8c ac3e
00000270: 5af8 563f 2590 d3be d329 24be c9cd 45bd
00000280: 082e 363e b3a8 a8bc 6211 eb3e abe9 163e
00000290: 447e b23e 8cbd 6a3e 5980 853e 17ee 91bf
000002a0: 153c 403f b141 a6be 8330 b03d e713 e6bd
000002b0: 57fb 14be 08e0 08bf 0965 5f3e f59c 983d
000002c0: 1c45 413e 62ac 303e daa8 363e 25fb 093e
000002d0: 2b57 fdbb e79a 583f f395 24bd ff38 5bbe
000002e0: 17f2 66bf 231f 4f3f 96e3 943e b29b a13e
000002f0: 0b36 c6bd c580 383f 2ca7 0f3f 2e2d a03e
00000300: df65 373e fd78 6c3e 9e89 d3bd 28eb c33d
00000310: 7dc1 ac3e e32f 1fbf 609a b9bc e204 9d3d
00000320: 30fe 00bf 207d 083f 8d09 98bd 9118 c03e
00000330: 307d d8bc 493e 053d 2427 9bbe af47 643e
00000340: 661f 3ebe 3d32 edbd 9713 1d3d 60a3 c73e
00000350: c617 0a3f 95e1 823c 3c81 0c3e 8fed fe3d
00000360: 262a 493f 626b 88be 6001 a5bd c874 d33e
00000370: 3775 6f3e afc6 1dbe 1a1d 8f3e 89e7 3b3e
00000380: e62f b0be f362 65bf cc51 a73e 42dc 81be
00000390: 766e 9abc b74b 603e b143 34bf a562 b8be
000003a0: a2e5 373f de1a acbe fb96 7a3d 6bb6 10bf
000003b0: 901e 66bf d6d3 86bf 3ec7 063f 510d f23c
000003c0: 0905 f13e 82c6 e83e 8e7b 843e 6054 1b3d
000003d0: 17bd 993e 4550 7f3e e11b 2c3f cf82 ebbd
000003e0: 4e67 643e a8ee a63e 61aa ad3d e263 093e
000003f0: 788f 36bf 14a2 85be 8ec9 883e 5000 c73d

bias f4 [128]
0.02469121 0.15752049 -0.12397939 -0.033660714 0.09800637 -0.02598509 -0.12625338 0.01867877
0.1064383 -0.27112702 -0.2994752 0.26025265 -0.116807796 0.036352474 -0.39768732 -0.06778529
-0.017837057 -0.34866077 -0.12937649 -0.32083333 -0.2686558 -0.0494873 0.054325484 -0.4203703
0.0025014856 -0.047278866 -0.12509054 -0.032098018 -0.2582331 -0.01259156 -0.13064098 -0.53475255
-0.0657332 -0.23376471 -0.063101225 -0.043186173 -0.01172232 -0.00011379999 -0.2821051 -0.019261671
-0.11164636 -0.020198915 -0.1816949 -0.08698226 -0.4007783 -0.05541305 -0.10399697 -0.009405324
-0.118835405 -0.03184752 -0.056086358 -0.0633466 -0.036043122 -0.04638243 -0.09494459 -0.067966275
-0.13202135 -0.08549966 -0.11684428 -0.048062865 -0.054293238 -0.10865739 -0.024988405 0.021995833
-0.38321134 -0.295775 -0.04222352 0.019384194 -0.06290927 0.049022716 -0.06527642 -0.06495052
-0.3388922 -0.22376396 -0.07564076 0.15003122 -0.18083291 -0.11464052 0.11906046 -0.13403307
-0.14827468 -0.1606145 -0.023882343 -0.017231574 -0.15627268 -0.12048534 -0.12045087 0.05257307
-0.11410401 -0.048475713 -0.048684042 0.04682348 0.23687012 -0.12694305 -0.17581864 -0.24645203
-0.05353439 -0.12820345 0.20794542 -0.12094286 -0.23927218 0.27596593 -0.12903875 -0.013419318
-0.12873618 -0.09471929 -0.41068053 -0.001203986 -0.02426979 -0.20791309 -0.1422365 -0.14651993
-0.29880673 0.051446445 -0.10391271 -0.27544788 0.2166154 -0.085055605 -0.047136202 -0.077703476
-0.036419794 0.007258716 -0.14591676 -0.083016485 -0.032500215 -0.010628188 -0.043649964 0.033228967
00000000: 3845 ca3c 0d4d 213e e8e8 fdbd d1df 09bd
00000010: 90b7 c83d afde d4bc 9148 01be 3804 993c
00000020: 53fc d93d 29d1 8abe d054 99be d63f 853e
00000030: ed38 efbd 55e6 143d ac9d cbbe 04d3 8abd
00000040: 051f 92bc aa83 b2be 457b 04be 4444 a4be
00000050: 418d 89be 32b3 4abd 6684 5e3d c73a d7be
00000060: f7ef 233b 7ca7 41bd bc17 00be 3679 03bd
00000070: 2137 84be d54c 4ebc c0c6 05be 8be5 08bf
00000080: 219f 86bd 0460 6fbe 373b 81bd fce3 30bd
00000090: f90e 40bc e8a7 eeb8 1470 90be a7ca 9dbc
000000a0: d9a6 e4bd 3278 a5bc 3a0e 3abe c123 b2bd
000000b0: d032 cdbe cbf8 62bd 5dfc d4bd ca18 1abc
000000c0: fa5f f3bd 8c72 02bd cfba 65bd ddbb 81bd
000000d0: f4a1 13bd 81fb 3dbd 4f72 c2bd e731 8bbd
000000e0: 9b30 07be 721a afbd 0e4c efbd 91dd 44bd
000000f0: 9662 5ebd c487 debd 7cb4 ccbc 9b30 b43c
00000100: 4734 c4be d26f 97be 92f2 2cbd 9acb 9e3c
00000110: 93d6 80bd 0bcc 483d a5af 85bd c704 85bd
00000120: 4783 adbe 6122 65be 8be9 9abd c9a1 193e
00000130: 432c 39be a6c8 eabd f8d5 f33d f73f 09be
00000140: 51d5 17be 2178 24be e7a4 c3bc 3b29 8dbc
00000150: f205 20be 05c1 f6bd f2ae f6bd dc56 573d
00000160: 5daf e9bd 788e 46bd eb68 47bd fac9 3f3d
00000170: 158e 723e 5cfd 01be cd09 34be ec5d 7cbe
00000180: e046 5bbd c447 03be a5ef 543e e4b0 f7bd
00000190: c403 75be 684b 8d3e bc22 04be b3dc 5bbc
000001a0: 6bd3 03be 30fc c1bd b844 d2be 11cf 9dba
000001b0: 70d1 c6bc 2be7 54be 72a6 11be 5209 16be
000001c0: 32fd 98be 82b9 523d 30d0 d4bd 8107 8dbe
000001d0: 6dd0 5d3e a231 aebd e411 41bd 0023 9fbd
000001e0: ec2c 15bd 86da ed3b 346b 15be 8c04 aabd
000001f0: f21e 05bd da21 2ebc 4eca 32bd 191b 083d

weight f4 [128, 128]
-0.019202854 -0.15906827 0.02020656 -0.040232904 -0.089864716 -0.052579112 0.004654805 0.063727215
0.122141436 -0.15251195 -0.078102 0.02390711 0.0663093 0.0043830397 -0.08933448 -0.07771087
0.0037141824 -0.24403255 0.037642367 0.014447201 -0.033761 -0.07978534 0.058442112 -0.09439387
0.070150495 -0.061833493 -0.022620289 0.09452254 0.017075526 -0.015143904 0.05003349 -0.3540026
-0.19053042 -0.12813687 0.09771413 -0.051139705 -0.023135597 -0.02331974 -0.006466765 0.12238878
-0.046427835 -0.04167489 -0.10194328 0.043485153 0.25229818 0.03267507 0.07347486 0.009836342
-0.044978496 0.05818485 -0.067265466 -0.06639185 0.071210355 0.03539903 0.05371299 0.10109294
0.031496286 0.02017205 -0.1558992 0.018531261 -0.013248147 0.05764015 0.042009965 0.08663387
-0.07716176 -0.289121 -0.08208204 -0.05215752 -0.20061243 -0.078891754 -0.15051359 0.028174764
-0.24612881 0.0013452327 -0.017541405 -0.045926955 0.025735117 0.019293794 -0.021465044 -0.031575657
-0.10008648 -0.07729257 -0.06658129 -0.034855116 -0.04629759 0.031611547 0.09243015 -0.0896754
-0.04928517 0.059913788 -0.076048866 0.08279978 -0.08276289 0.029076735 -0.057130497 -0.11762021
-0.011835319 -0.07904905 -0.54518545 0.02081283 0.062417272 -0.055415165 0.065877266 -0.02266944
0.044543367 0.046434514 -0.09979037 0.08077854 0.0060384623 -0.07586808 -0.16848892 -0.0004969695
-0.23413335 0.008706378 -0.18364863 -0.29784146 -0.4023081 0.02909144 0.034507927 0.039661072
-0.036010437 -0.1489321 -0.04179667 -0.05231935 0.082364924 -0.08077224 0.06161454 0.071511164
-0.122215174 0.21438237 -0.080054685 -0.0944225 0.110994875 0.034983076 -0.054449614 0.22581327
-0.45663288 -0.31165197 0.124441266 -0.4538146 -0.06751609 -0.08004798 0.3439916 0.041515224
0.03435163 0.12423921 -0.23178634 -0.22166653 -0.54418594 -0.2932534 0.027776081 0.2832745
0.06430024 0.0917514 -0.05322403 0.045843787 -0.044816256 -0.04086512 -0.08573053 -0.15716197
0.3192612 -0.012537238 0.0479748 -0.050286718 0.0731404 -0.03687979 -0.19024366 0.19540589
0.033949874 -0.14347342 0.019455638 -0.009232955 0.14054887 -0.008811163 0.066519596 0.08554968
0.078393504 -0.21581863 -0.07757369 -0.15042983 -0.049188934 0.06251839 0.008725866 -0.26885137
0.1729922 -0.0029709337 0.05196305 0.0480851 -0.024873646 0.14205147 -0.0929887 0.055576533
-0.3328564 -0.39446512 -0.26284996 0.021993002 0.117310286 0.0023953712 0.0690665 -0.21761246
-0.09004135 -0.008713955 -0.017425105 -0.2586255 -0.16426638 0.051971655 -0.057928257 -0.1679035
0.0244851 -0.116252914 -0.0033101272 -0.11946253 -0.01678758 0.0046514836 -0.0963709 -0.16090545
-0.064348616 -0.055980287 -0.08457385 -0.07915171 -0.107608065 -0.039132934 0.057304524 -0.12928863
-0.103741236 0.027572626 0.22409818 0.054737013 0.43005374 -0.2543137 0.05819491 -0.15613778
0.012867202 -0.022663787 -0.16671707 -0.055744953 -0.12083831 -0.1793412 -0.085048415 -0.21751066
0.06928597 -0.051825445 -0.061163034 0.112121694 0.3887937 0.03174516 -0.059071254 -0.4189666
-0.018221606 0.0056979503 -0.041779287 -0.031164749 0.12682906 -0.15228519 -0.054843202 -0.03891829
00000000: 4e4f 9dbc cbe2 22be 3a88 a53c 42cb 24bd
00000010: fe0a b8bd 325d 57bd 5687 983b 6a83 823d
00000020: 4a25 fa3d 182c 1cbe f1f3 9fbd d8d8 c33c
00000030: 2ccd 873d 9a9f 8f3b fff4 b6bd e026 9fbd
00000040: a469 733b abe3 79be e22e 1a3d f4b3 6c3c
00000050: f948 0abd 7f66 a3bd ff60 6f3d 9351 c1bd
00000060: 10ab 8f3d 1e45 7dbd 2f4e b9bc 0995 c13d
00000070: f9e1 8b3c 231e 78bc ebef 4c3d d43f b5be
00000080: 681a 43be 5036 03be 591e c83d de77 51bd
00000090: dd86 bdbc 0a09 bfbc 28e7 d3bb f8a6 fa3d
000000a0: 1d2b 3ebd 4ab3 2abd a3c7 d0bd 7d1d 323d
000000b0: 3a2d 813e 4bd6 053d fd79 963d 9c28 213c
000000c0: 5f3b 38bd 3d53 6e3d 7ac2 89bd 73f8 87bd
000000d0: bcd6 913d 93fe 103d 2702 5c3d d109 cf3d
000000e0: 4002 013d db3f a53c 0aa4 1fbe dfce 973c
000000f0: c20e 59bc 1418 6c3d a412 2c3d 196d b13d
00000100: fc06 9ebd ab07 94be a11a a8bd 20a3 55bd
00000110: 586d 4dbe 0092 a1bd 3c20 1abe c3ce e63c
00000120: 3109 7cbe 8552 b03a feb2 8fbc e71d 3cbd
00000130: 74d2 d23c 050e 9e3c 76d7 afbc 7a55 01bd
00000140: 24fa ccbd 914b 9ebd c55b 88bd 3dc4 0ebd
00000150: 8ba2 3dbd 1c7b 013d 054c bd3d bca7 b7bd
00000160: 3fdf 49bd 2968 753d 82bf 9bbd ee92 a93d
00000170: 977f a9bd 5532 ee3c ab01 6abd dde2 f0bd
00000180: ede8 41bc 78e4 a1bd 4691 0bbf ab7f aa3c
00000190: 41a9 7f3d 03fb 62bd a9ea 863d 43b5 b9bc
000001a0: 1b73 363d 1e32 3e3d e55e ccbd 386f a53d
000001b0: 4bde c53b b960 9bbd 5c88 2cbe 0f47 02ba
000001c0: a7c0 6fbe 32a5 0e3c 630e 3cbe ad7e 98be
000001d0: 54fb cdbe 2c51 ee3c 2f58 0d3d a673 223d
000001e0: ae7f 13bd a881 18be fc32 2bbd d14c 56bd
000001f0: f1ae a83d eb6b a5bd 875f 7c3d 7274 923d
00000200: f34b fabd 0d87 5b3e b6f3 a3bd 9560 c1bd
00000210: 4851 e33d 6a4a 0f3d 8f06 5fbd 983b 673e
00000220: c9cb e9be d990 9fbe 10db fe3d 635a e8be
00000230: e045 8abd 32f0 a3bd ab1f b03e de0b 2a3d
00000240: 4bb4 0c3d 2071 fe3d 6659 6dbe 8dfc 62be
00000250: c54f 0bbf 4f25 96be aa8a e33c 5b09 913e
00000260: d8af 833d 28e8 bb3d 7101 5abd b2c6 3b3d
00000270: 4091 37bd 2f62 27bd 7d93 afbd 11ef 20be
00000280: 3476 a33e fd68 4dbc 3981 443d 72f9 4dbd
00000290: a2ca 953d 430f 17bd 3ccf 42be 7b18 483e
000002a0: 060f 0b3d b2ea 12be 6e61 9f3c d245 17bc
000002b0: 0bec 0f3e b25c 10bc 6d3b 883d ac34 af3d
000002c0: c68c a03d 8fff 5cbe f4de 9ebd 470a 1abe
000002d0: 567a 49bd a409 803d eff6 0e3c e3a6 89be
000002e0: de24 313e ffb3 42bb 35d7 543d e2f4 443d
000002f0: d1c3 cbbc f175 113e dc70 bebd 38a4 633d
00000300: 276c aabe 55f7 c9be 4594 86be ab2a b43c
00000310: 6040 f03d a9fb 1c3b bd72 8d3d cdd5 5ebe
00000320: 9967 b8bd fac4 0ebc 18bf 8ebc 906a 84be
00000330: 7235 28be 3be0 543d 2e46 6dbd e5ee 2bbe
00000340: fa94 c83c 0216 eebd b8ee 58bb c5a8 f4bd
00000350: 1b86 89bc 796b 983b 1b5e c5bd 66c4 24be
00000360: 35c9 83bd 964b 65bd 0e35 adbd 4b1a a2bd
00000370: 9e61 dcbd db49 20bd 26b8 6a3d 3d64 04be
00000380: 4976 d4bd fddf e13c fe79 653e eb33 603d
00000390: 0130 dc3e 6835 82be c95d 6e3d 95e2 1fbe
000003a0: f5d0 523c 68a9 b9bc e1b7 2abe d254 64bd
000003b0: 137a f7bd 38a5 37be dd2d aebd 1dbb 5ebe
000003c0: cde5 8d3d eb46 54bd 1786 7abd 0fa0 e53d
000003d0: f80f c73e 3707 023d b3f4 71bd ca82 d6be
000003e0: 7a45 95bc dfb5 ba3b c220 2bbd 374d ffbc
000003f0: 7adf 013e a6f0 1bbe 44a3 60bd c968 1fbd

bias f4 [128]
-0.12266628 -0.4698606 0.0027869283 0.17552073 -0.08967471 -0.14817087 -0.018428113 -0.18707807
0.14024489 -0.23690745 -0.14308424 -0.20261158 0.07984474 0.13723671 -0.046158615 0.021645691
0.17005235 -0.059776265 0.23149759 -0.0612337 0.27084658 -0.14744078 -0.030738443 -0.03729623
-0.2990007 0.071161605 -0.11908216 -0.013223868 -0.26050434 -0.048528034 -0.1623233 -0.22884366
-0.16015124 -0.14331748 -1.1202626 0.32580152 -0.12011977 0.0024430477 -0.13524029 -0.06510627
-0.11705197 -0.06008733 -0.0326437 -0.1236216 -0.18789631 0.020975532 0.06241609 0.013523842
-0.1740133 0.115741216 0.12537955 -0.10478458 -0.068934076 -0.07948962 0.21327695 -0.17974068
-0.09954366 -0.11404636 -0.02186612 0.12315637 -0.03810202 -0.13906448 -0.6889709 -0.14436217
-0.12276846 -0.016631888 -0.18598148 0.06856578 -0.14774741 -0.13745292 0.22401209 -0.14999928
0.19598727 -0.12435074 -0.07304958 -0.24660683 -0.27784705 -0.03929424 -0.25808382 0.14094274
-0.052551817 0.18348825 0.0024726307 0.10606822 0.059593353 -0.021940175 -0.3551165 -0.19999467
0.02432552 -0.15438151 -0.24100003 -0.16006483 -0.1485829 -0.2539962 0.25107205 -0.29550448
0.10373329 -0.056280546 -0.17436975 -0.011882736 -0.067972645 -0.10448326 -0.07386533 -0.022054514
0.2596577 0.016500065 0.29412103 0.12652387 0.04720736 0.014653491 0.110269316 -0.09086224
-0.10153575 -0.07287356 -0.5869572 -0.19291843 -0.12512127 -0.084799334 -0.03834768 0.16739546
-0.005329383 -0.341171 -0.00030351806 -0.22612885 -0.031279083 -0.25714067 0.01269645 -0.13081461
00000000: 7538 fbbd 9291 f0be e6a4 363b b5bb 333e
00000010: 60a7 b7bd 1bba 17be 8ef6 96bc 6591 3fbe
00000020: 5b9c 0f3e de97 72be ad84 12be 6979 4fbe
00000030: a485 a33d c887 0c3e d110 3dbd 4e52 b13c
00000040: 3422 2e3e f5d7 74bd b40d 6d3e 30d0 7abd
00000050: 67ac 8a3e b7fa 16be 30cf fbbc efc3 18bd
00000060: 9f16 99be 2dbd 913d 59e1 f3bd eca8 58bc
00000070: d360 85be 55c5 46bd 1438 26be fe55 6abe
00000080: b0fe 23be d1c1 12be c464 8fbf 75cf a63e
00000090: 5b01 f6bd 8a1b 203b 6e7c 0abe 7056 85bd
000000a0: f1b8 efbd 221e 76bd 66b5 05bd 522d fdbd
000000b0: e467 40be e1d4 ab3c 04a8 7f3d 1b93 5d3c
000000c0: 8b30 32be bb09 ed3d 7f63 003e 4c99 d6bd
000000d0: 4f2d 8dbd 74cb a2bd 4665 5a3e f10d 38be
000000e0: 8cdd cbbd 2391 e9bd 9420 b3bc 6839 fc3d
000000f0: dd10 1cbd eb66 0ebe 6660 30bf add3 13be
00000100: 086e fbbd 993f 88bc ee71 3ebe 376c 8c3d
00000110: 194b 17be 75c0 0cbe 6d63 653e 6999 19be
00000120: e3b0 483e 9aab febd 059b 95bd 8086 7cbe
00000130: f841 8ebe fff2 20bd 9023 84be 4b53 103e
00000140: 9340 57bd 58e4 3b3e dc0b 223b 4c3a d93d
00000150: 2918 743d e2bb b3bc d4d1 b5be 67cb 4cbe
00000160: 5046 c73c 3016 1ebe b6c8 76be 09e8 23be
00000170: 1e26 18be ca0b 82be 848c 803e 5d4c 97be
00000180: 1f72 d43d 6e86 66bd fc8d 32be cfaf 42bc
00000190: 3e35 8bbd 52fb d5bd b546 97bd abab b4bc
000001a0: dbf1 843e 252b 873c 0897 963e 798f 013e
000001b0: 815c 413d 3215 703c e1d4 e13d fb15 babd
000001c0: faf1 cfbd bc3e 95bd d442 16bf 698c 45be
000001d0: ca1f 00be 46ab adbd 7512 1dbd b769 2b3e
000001e0: 1ba2 aebb f7ad aebe 8121 9fb9 528e 67be
000001f0: 7f1e 00bd f1a7 83be c504 503c 44f4 05be

weight f4 [64, 128]
-0.081662536 -0.32646096 -0.16031037 0.0014045031 -0.033665378 0.15528905 0.20318836 0.08034549
-0.21286675 0.016304845 -0.052909426 0.02796569 -0.028749518 -0.15070522 0.072562605 0.01327971
-0.14356501 0.17643277 -0.053094663 0.08651667 -0.059520386 0.01729235 -0.15385503 0.124155946
-0.05897465 0.032927703 -0.04019234 0.11175005 0.086980835 -0.046484217 0.031028595 -0.058799073
-0.06084708 0.0033705316 -0.09402512 -0.21203655 0.1103542 -0.019023234 0.009763354 0.104732074
0.024095634 0.023206629 0.07748268 -0.007889493 0.05716666 0.023968214 0.06547117 0.03749231
0.06826744 0.061361928 0.015812255 0.058289643 0.11125629 -0.07730895 0.18369834 0.027471755
0.07311732 0.07472549 0.097732216 -0.2841992 0.06498573 -0.033552792 -0.06531784 0.080919094
-0.109205924 -0.0028455707 -0.04961529 -0.2446364 0.11438801 -0.0022482204 -0.07022278 -0.04353607
-0.08381419 0.06434858 -0.22363153 -0.073152475 -0.19105306 -0.12151583 -0.068913855 0.08646946
0.024315003 -0.16859347 0.117205255 -0.09667259 0.078301005 -0.018272042 -0.052769005 -0.047646254
-0.0051605217 0.010674399 0.050043505 0.0061809993 0.081703484 0.005714127 -0.0625311 -0.26602957
0.12902886 -0.047484454 -0.010289 -0.12860861 -0.07121028 -0.067638464 -0.006863533 -0.09482653
-0.0017535846 0.019599317 -0.04005026 0.012207515 -0.113861695 -0.022257281 0.062409237 -0.10328177
0.09700085 -0.07195929 -0.03838805 -0.024697894 0.09387967 0.11976153 0.115727834 -0.029313648
-0.12002502 -0.015755823 -0.10574637 -0.017719975 -0.072996035 -0.13904808 0.13602468 0.020258306
-0.056111764 -0.1293776 -0.023624687 -0.055532377 0.02173073 -0.0908039 -0.009290777 0.0054196133
-0.14507818 0.0929629 -0.045941014 0.03096649 -0.10274289 -0.1456542 -0.0008482225 0.052547745
-0.119456895 0.069693156 -0.13876536 -0.008354038 -0.0043674507 0.05684925 0.008969811 -0.033405736
-0.010519921 0.00981235 0.081120126 0.040776387 -0.12970008 -0.16492154 0.04657097 -0.04449117
-0.018070508 0.06609027 -0.13362625 -0.098842315 0.060007513 0.015505358 -0.06060708 -0.061873987
-0.05982674 0.07547102 0.04389986 0.009943986 0.054061566 -0.14269485 0.05364044 -0.09091824
-0.08822418 0.0668538 -0.0045607197 -0.08155201 0.057267662 -0.044047754 0.015009059 -0.020590248
-0.012708058 0.030306911 0.050695408 -0.063465215 0.063845515 -0.10097124 -0.016600028 0.08834364
-0.059859153 0.07393482 -0.06866465 0.027644882 0.07865196 -0.011345337 -0.18680161 0.08065645
-0.048844326 -0.07580613 -0.029423444 0.00088837586 -0.06306394 0.016343825 0.05165603 -0.10657456
0.05005598 -0.100336604 0.099170744 -0.13494271 0.109406866 -0.07137182 0.05894474 0.020321157
-0.11749853 0.0018863035 -0.049432248 0.01095848 -0.008221203 0.08392242 0.0052390844 -0.06437811
0.10065201 0.014473709 0.025744213 0.04718766 -0.13292676 0.060803954 0.0048425538 0.05607926
-0.06655546 -0.022991488 -0.14801405 0.048097655 0.032668732 -0.055306535 0.06353403 0.035146452
0.093286805 -0.058046013 -0.09215792 -0.06240552 -0.059778195 0.044181008 0.032232795 0.05789985
-0.013055166 0.106033415 0.008450131 -0.051586196 0.05478879 -0.09436572 0.02703981 -0.07094361
00000000: b03e a7bd e425 a7be 6728 24be 4e17 b83a
00000010: b5e4 09bd 1804 1f3e 9c10 503e 2d8c a43d
00000020: bef9 59be bd91 853c 8eb7 58bd 4d18 e53c
00000030: 1c84 ebbc 7852 1abe b49b 943d 2493 593c
00000040: b502 13be cbaa 343e ca79 59bd a72f b13d
00000050: a6cb 73bd b0a8 8d3c 2c8c 1dbe 7945 fe3d
00000060: 678f 71bd 33df 063d b9a0 24bd 36dd e43d
00000070: 0223 b23d 3c66 3ebd ae2f fe3c 4cd7 70bd
00000080: ca3a 79bd 23e4 5c3b 3e90 c0bd 1c20 59be
00000090: 6201 e23d 9dd6 9bbc 7af6 1f3c c57d d63d
000000a0: 3564 c53c d41b be3c 3daf 9e3d ef42 01bc
000000b0: 9627 6a3d fd58 c43c c015 863d 8991 193d
000000c0: cdcf 8b3d a556 7b3d b488 813c 1fc1 6e3d
000000d0: 56da e33d 2854 9ebd 6b1b 3c3e 720c e13c
000000e0: 89be 953d ad09 993d d427 c83d 8f82 91be
000000f0: 3d17 853d a76e 09bd 5cc5 85bd e9b8 a53d
00000100: 5ba7 dfbd c17c 3abb 6739 4bbd f781 7abe
00000110: 4344 ea3d e156 13bb f6d0 8fbd e152 32bd
00000120: c6a6 abbd 30c9 833d aaff 64be f7d0 95bd
00000130: 6aa3 43be 4bdd f8bd b522 8dbd e616 b13d
00000140: 4230 c73c c4a3 2cbe 4f09 f03d 47fc c5bd
00000150: 475c a03d 40af 95bc 5024 58bd b828 43bd
00000160: 9819 a9bb ade3 2e3c 6bfa 4c3d fb89 ca3b
00000170: 2854 a73d 923d bb3b 4e10 80bd 0735 88be
00000180: 2420 043e 0f7f 42bd 3293 28bc fab1 03be
00000190: b2d6 91bd 0986 8abd 7de7 e0bb 6934 c2bd
000001a0: 89d8 e5ba bf8e a03c be0b 24bd 0702 483c
000001b0: 5230 e9bd e754 b6bc d4a0 7f3d 6585 d3bd
000001c0: 62a8 c63d 645f 93bd ca3c 1dbd 3d53 cabc
000001d0: fc43 c03d 8845 f53d b702 ed3d 2d23 f0bc
000001e0: adcf f5bd 5b12 81bc 8e91 d8bd 7b29 91bc
000001f0: f27e 95bd 9f62 0ebe 0e4a 0b3e bff4 a53c
00000200: 73d5 65bd 907b 04be 8f88 c1bc eb75 63bd
00000210: a504 b23c 65f7 b9bd 5838 18bc 0397 b13b
00000220: 608f 14be 5563 be3d a52c 3cbd 70ad fd3c
00000230: dd6a d2bd 6026 15be 405b 5eba 4e3c 573d
00000240: d1a5 f4bd 49bb 8e3d 8218 0ebe 60df 08bc
00000250: d51c 8fbb c2da 683d 1df6 123c 74d4 08bd
00000260: bf5b 2cbc fbc3 203c 4f22 a63d 2405 273d
00000270: 19d0 04be 31e1 28be 34c1 3e3d 603c 36bd
00000280: 9a08 94bc 565a 873d 52d5 08be d76d cabd
00000290: 70ca 753d 2f0a 7e3c 213f 78bd 946f 7dbd
000002a0: e20c 75bd 8d90 9a3d 57d0 333d 1aec 223c
000002b0: a96f 5d3d 991e 12be 14b6 5b3d 5833 babd
000002c0: e1ae b4bd a5ea 883d 1772 95bb bd04 a7bd
000002d0: 7f91 6a3d 6b6b 34bd 8ee8 753c e1ac a8bc
000002e0: 7535 50bc 3346 f83c fda5 4f3d 0dfa 81bd
000002f0: 70c1 823d 02ca cebd c8fc 87bc 83ed b43d
00000300: df2e 75bd 246b 973d 0da0 8cbd 8577 e23c
00000310: 4714 a13d cbe1 39bc ec48 3fbe 352f a53d
00000320: fd10 48bd 3f40 9bbd 6f09 f1bc e5e1 683a
00000330: ab27 81bd 7ce3 853c 4695 533d c343 dabd
00000340: 8007 4d3d 477d cdbd 081a cb3d 6c2e 0abe
00000350: b510 e03d 642b 92bd 0a70 713d 8e78 a63c
00000360: 12a3 f0bd d83d f73a 7879 4abd 328b 333c
00000370: 3ab2 06bc 85df ab3d a0ac ab3b acd8 83bd
00000380: a422 ce3d 2323 6d3c 87e5 d23c d947 413d
00000390: f41d 08be 910d 793d 49ae 9e3b 5eb3 653d
000003a0: 3b4e 88bd a558 bcbc ff90 17be 0c02 453d
000003b0: a6cf 053d 1b89 62bd 211e 823d baf5 0f3d
000003c0: 270d bf3d a8c1 6dbd 4bbd bcbd ee9c 7fbd
000003d0: fbd9 74bd 25f7 343d 8906 043d 6528 6d3d
000003e0: 56e5 55bc 0c28 d93d 6b72 0a3c 0c4c 53bd
000003f0: 366a 603d d142 c1bd 9782 dd3c e24a 91bd

bias f4 [64]
-0.2537259 -0.1744887 -0.15120156 -0.27859768 -0.18866485 -0.2602751 -0.14032751 -0.06971023
-0.14366636 -0.24348705 -0.18239248 -0.13659571 -0.10303207 -0.2745084 -0.12576799 -0.1847134
-0.06569085 -0.21984456 -0.27959588 -0.25645834 -0.17990883 -0.113171816 -0.33537 -0.20335887
0.32086322 -0.16059089 -0.0062604747 -0.10443901 -0.31636178 -0.20676723 -0.13207428 -0.20624696
-0.074692614 -0.27097827 0.1003333 -0.11582249 -0.18647847 0.40577903 -0.26663086 -0.21353157
-0.15089315 -0.24237046 0.36363724 -0.169075 -0.26591858 0.3001431 -0.30071974 -0.20861422
-0.23949462 -0.18879385 -0.27937558 -0.19055398 -0.23265088 0.8532306 -0.25393087 -0.19223867
-0.004734207 -0.26659814 -0.44470546 -0.14234036 0.21312657 -0.18816674 -0.18182276 0.05984921
00000000: 5ce8 81be 2aad 32be 95d4 1abe 5ba4 8ebe
00000010: 5c31 41be c742 85be 04b2 0fbe 3dc4 8ebd
00000020: 461d 13be ab54 79be 18c5 3abe bfdf 0bbe
00000030: 7a02 d3bd 5d8c 8cbe 53c9 00be 8225 3dbe
00000040: ed88 86bd ef1e 61be 3127 8fbe 824e 83be
00000050: 053a 38be a0c6 e7bd 9eb5 abbe 4f3d 50be
00000060: 2f48 a43e f071 24be ab24 cdbb 1fe4 d5bd
00000070: 2cfa a1be caba 53be 7b3e 07be 6732 53be
00000080: 71f8 98bd aabd 8abe 8c7b cd3d 5734 edbd
00000090: 36f4 3ebe 45c2 cf3e d783 88be 05a8 5abe
000000a0: bc83 1abe f62f 78be a92e ba3e ff21 2dbe
000000b0: 7b26 88be 5bac 993e f0f7 99be f79e 55be
000000c0: 143e 75be 2d53 41be 510a 8fbe 9520 43be
000000d0: 083c 6ebe 526d 5a3f 3a03 82be 37da 44be
000000e0: 6821 9bbb 8d7f 88be 6fb0 e3be acc1 11be
000000f0: da3d 5a3e c8ae 40be bf2f 3abe 7224 753d

weight f4 [6, 64]
0.32858193 0.29307956 0.174317 0.24790585 0.27002746 0.3167413 0.23149589 0.43090877
0.23175429 0.19314772 -0.014885306 0.14801528 0.21676889 0.1595087 -0.03714745 0.15739234
0.3804023 0.18860102 0.14979833 0.55279076 0.22708198 0.11236569 0.42630073 0.27197617
0.34859976 0.3545392 0.48318765 0.0646351 0.50171125 0.42987594 0.2971601 0.17294165
0.37964672 0.545245 0.58324957 0.47516334 0.24725744 0.94993335 0.16464752 0.38680175
0.5658479 0.31014878 0.80328876 0.3403986 0.14633864 0.9591722 0.27561522 0.41810325
0.24522234 0.7024294 0.17855714 1.0275997 0.09474406 0.6712911 0.4186001 0.34713012
0.30448428 0.7393389 0.5544486 0.22388823 0.60834634 0.51270604 0.035571467 0.8776012
0.39816234 0.40778977 0.37099415 0.12557524 0.14928335 0.3773078 0.27283955 0.21756615
0.32163715 0.18741347 0.18809918 0.054048233 0.23510596 0.14317615 0.27557003 0.15764855
0.34632203 0.11645581 0.0281912 0.4684335 0.22277065 0.38471332 0.12857577 0.15016139
0.52387387 0.328721 0.17507195 0.6814058 0.76164746 0.4494278 0.17868823 0.20111988
0.29293436 0.29515633 0.4972424 0.4541546 0.43937793 1.0725217 0.12769389 0.39735565
0.6106042 0.25108314 1.1661978 0.218124 0.085464194 1.1331748 0.33974898 0.29086328
0.7390147 0.7854281 0.489718 0.6301547 0.21946622 0.657969 0.39644355 0.44869754
0.26732403 0.61510557 0.5728388 -0.028411234 0.66025853 0.6333176 0.11862449 0.78826135
0.3940148 0.21368526 0.33691943 0.17264682 0.1493337 0.20841347 0.24831142 0.41711184
0.40818834 0.20937079 0.118688695 0.061668117 0.11209381 0.19960417 0.093127295 0.18464339
0.4791958 0.104844995 0.19625852 0.3614248 0.15704933 0.19712815 0.14736684 0.058139242
0.41120592 0.52379286 0.42640558 0.5785945 0.5629529 0.2973852 0.2996088 0.3222523
0.4276737 0.49065056 0.5129971 0.045230407 0.18430908 0.5980684 0.1113401 0.1643664
0.41170153 0.32158566 0.71728474 0.166284 0.15041359 0.74193746 0.36531302 0.5106656
0.4917318 0.4526209 0.42334464 1.0624862 0.16891049 0.4672807 0.18481089 0.45652217
0.047518626 0.50337285 0.6474633 0.21363284 0.43449962 0.33466867 0.064585075 0.31085938
0.44245383 0.19088759 0.24101299 0.267149 0.2819231 0.39530954 0.3501358 0.35517317
0.33714256 0.27108535 0.16453578 0.45874637 0.46205345 0.26057184 0.42584458 0.18118669
0.23360944 0.06622613 0.17983998 0.3474272 0.24491626 0.40564895 0.2905371 0.13042082
0.1252575 0.8838919 0.6267573 0.7531499 0.7748485 0.33724734 0.2909775 0.26918575
0.13217592 0.3620515 0.88513523 0.7122462 0.42203346 0.88535106 0.09828258 0.21466875
0.41975793 0.34903005 0.13393293 0.25949168 0.18546224 0.6608104 0.20944577 0.23407617
0.5171665 0.79921466 0.3205744 0.79486686 0.1711209 0.805041 0.37010252 0.24037294
0.11993444 0.52816325 0.49541858 0.26328412 0.22119084 0.8483579 0.16523677 0.4949553
00000000: e43b a83e 860e 963e 2880 323e 08db 7d3e
00000010: 0a41 8a3e ea2b a23e 420d 6d3e 13a0 dc3e
00000020: ff50 6d3e 84c8 453e 80e1 73bc 5191 173e
00000030: aaf8 5d3e 4056 233e ed27 18bd 752b 213e
00000040: 17c4 c23e a020 413e bc64 193e b283 0d3f
00000050: 2e88 683e fc1f e63d 1744 da3e 7640 8b3e
00000060: ab7b b23e 2986 b53e 5f64 f73e 685f 843d
00000070: 2670 003f b318 dc3e 5e25 983e 9e17 313e
00000080: 0e61 c23e 2d95 0b3f d84f 153f 9c48 f33e
00000090: 0e31 7d3e d52e 733f 5c99 283e e10a c63e
000000a0: 68db 103f d2cb 9e3e 55a4 4d3f ba48 ae3e
000000b0: ccd9 153e 4f8c 753f 701d 8d3e a111 d63e
000000c0: 911b 7b3e 6ad2 333f afd7 363e 6388 833f
000000d0: 2c09 c23d bcd9 2b3f c152 d63e 0abb b13e
000000e0: 5de5 9b3e 5045 3d3f 58f0 0d3f f542 653e
000000f0: 96bc 1b3f b440 033f 63b3 113d 79aa 603f
00000100: efdb cb3e d2c9 d03e f2f2 bd3e cc96 003e
00000110: bcdd 183e 7d2e c13e a0b1 8b3e a9c9 5e3e
00000120: a0ad a43e 51e9 3f3e 129d 403e ae61 5d3d
00000130: 9ebf 703e c59c 123e 8417 8d3e 9f6e 213e
00000140: 1f51 b13e 6280 ee3d 3bf1 e63c 84d6 ef3e
00000150: fd1d 643e 25f9 c43e 5ea9 033e e8c3 193e
00000160: 991c 063f 1e4e a83e 1046 333e 9c70 2e3f
00000170: 54fb 423f 671b e63e 0cfa 363e 5ff2 4d3e
00000180: 7efb 953e bb1e 973e 8e96 fe3e f486 e83e
00000190: 25f6 e03e 6448 893f 30c2 023e 3372 cb3e
000001a0: 8f50 1c3f f88d 803e f845 953f e65b 5f3e
000001b0: da07 af3d df0b 913f 94f3 ad3e 08ec 943e
000001c0: 1130 3d3f d111 493f 51bc fa3e d251 213f
000001d0: c1bb 603e a870 283f a6fa ca3e afbb e53e
000001e0: b2de 883e 8f77 1d3f 90a5 123f adbe e8bc
000001f0: b406 293f 1a21 223f 66f1 f23d 7fcb 493f
00000200: 4fbc c93e 4fd0 5a3e b480 ac3e 54ca 303e
00000210: efea 183e 576a 553e 5945 7e3e af8f d53e
00000220: 10fe d03e 4c65 563e 0f13 f33d b597 7c3d
00000230: 7191 e53d 0965 4c3e 86b9 be3d 2813 3d3e
00000240: 2759 f53e f9b8 d63d fef7 483e ac0c b93e
00000250: 8ad1 203e f6db 493e 55e7 163e 6a23 6e3d
00000260: 9589 d23e 4a17 063f d551 da3e c51e 143f
00000270: ae1d 103f df42 983e 5366 993e 41fe a43e
00000280: 0cf8 da3e 8d36 fb3e c753 033f 8543 393d
00000290: 85bb 3c3e 031b 193f 4706 e43d aa4f 283e
000002a0: 8bca d23e e0a6 a43e f99f 373f 5a46 2a3e
000002b0: 0506 1a3e 9def 3d3f 4f0a bb3e fbba 023f
000002c0: 45c4 fb3e edbd e73e a1c0 d83e 8cff 873f
000002d0: dff6 2c3e 6a3f ef3e 113f 3d3e 46bd e93e
000002e0: e4a2 423d 0bdd 003f 28c0 253f 91c2 5a3e
000002f0: bc76 de3e b159 ab3e 2e45 843d f628 9f3e
00000300: 4f89 e23e 0978 433e 1ccc 763e c1c7 883e
00000310: 3958 903e 0366 ca3e 0045 b33e 42d9 b53e
00000320: f39d ac3e b3cb 8a3e 117c 283e cee0 ea3e
00000330: 4592 ec3e ac69 853e 4d08 da3e 0189 393e
00000340: 5037 6f3e 91a1 873d f927 383e fae1 b13e
00000350: 54cb 7a3e 38b1 cf3e 47c1 943e 098d 053e
00000360: 8143 003e bd46 623f 2b73 203f 6fce 403f
00000370: 795c 463f afab ac3e 01fb 943e b7d2 893e
00000380: 2059 073e d05e b93e 3998 623f c455 363f
00000390: c514 d83e 5ea6 623f 6148 c93d 20d2 5b3e
000003a0: 83ea d63e 11b4 b23e b725 093e 18dc 843e
000003b0: d0e9 3d3e df2a 293f f478 563e aab1 6f3e
000003c0: 0665 043f 5599 4c3f 5422 a43e 657c 4b3f
000003d0: 513a 2f3e 2b17 4e3f 147e bd3e 5324 763e
000003e0: 30a0 f53d b535 073f 81a7 fd3e 2dcd 863e
000003f0: da7f 623e fc2d 593f d433 293e c86a fd3e

bias f4 [6]
9.684267 9.4779005 9.316494 9.143902 9.495161 9.626417
00000000: c2f2 1a41 7ba5 1741 5c10 1541 6c4d 1241
00000010: 2eec 1741 ce05 1a41
