model.pth (torch, 140871 bytes, 6 tensors)

weight f4 [128, 200]
00000000: f190 37bc 7e14 b93d eb43 3a3b d48f 6a3d
00000010: 258a e3bc 79f7 2dbc f31d 0b3d 3436 ae3c
00000020: 269e f63d 3994 a03d 122e d9bc 454f 3f3c
00000030: 9182 99bc 5e5f 363d 216f a5bc 7963 b93d
00000040: 6697 bbbd 16f3 0e3d 87ee f1b9 39ee 4ebd
00000050: 6073 98bc 4202 bbbd 3d43 0fbd 3c91 8cbd
00000060: 00c8 fc3c 3906 69bc 8532 d43c f470 23b9
00000070: 18ae 4f3d 237e 763c 585a 0c3d 2947 1bbe
00000080: 4efe 813c fd86 843d 4bcd b83d 3ed1 fe3d
00000090: 0950 bc3d 377d 943c 7488 dabc d1f1 0b3d
000000a0: 3b6a aa3d dc02 1cbd 853b 9a3d 0c45 fb3c
000000b0: c3af a1bc 5508 dd3d 4e16 fb3c 5858 85bd
000000c0: a5a7 d73c 7229 223c 6ac6 6ebc f4fa 303d
000000d0: 624b b33c 4177 b63d 846d 7a3d 6752 003e
000000e0: bb7f 653d d747 c7bb 6e64 4dbd a8b7 09bd
000000f0: 124f 90bd 14bb f73b 3228 ba3d 81d9 963d
00000100: d43f b93c 56fa 4e3d 7582 e63a ffee aebb
00000110: 365a 9dbd 304e 1dbd fda1 393e 302d e43d
00000120: 2483 2d3d 6f31 853d e0ac 0c3e 4c39 b73d
00000130: b576 963d b557 f33c f692 383d 9e55 6b3d
00000140: 2b29 873d 5d9d 553d 15a5 11bd f802 623d
00000150: 7380 143d 3945 67bc e112 c13c 2a01 e8bd
00000160: 8a04 31bd 87e1 3a3d 9cd1 e939 5521 8e3d
00000170: da63 46bc 5657 2a3b b261 613d f746 b8bc
00000180: 5001 3abb 12d2 783d 531f 4ebd cd8b e53d
00000190: e465 30bd d9d2 12bd 3278 8d3c 90b6 573d
000001a0: 8f75 5abc 6be7 cd3d 0298 773c e24d f9bc
000001b0: 07d8 8bbd cca1 90bc 4066 a73d b137 91bc
000001c0: 5337 abbc c300 f5bb 32ec 1e3c 300b 07bd
000001d0: 4b35 8f3d 7eeb 0fbc 0272 923c a256 4d3d
000001e0: e3e0 abbc 8b3b ac3d c650 493d 0962 2e3d
000001f0: 36c5 5a3c f104 8fbb 9801 acbb 0b0a 12bc
00000200: aa7e 3b3d 806f 49bd 39fc 773c 3f67 6b3d
00000210: 7cf3 7cbc 0646 02bc 114f 413d 0b28 f8bc
00000220: 167c 063c 6d42 99bc aa94 ec3c d448 4c3b
00000230: ad18 e03b b8ec 3b3d ebd4 86bd 9718 36bc
00000240: 3688 36bd b886 8c3d 7e91 d73d 21c2 3e3c
00000250: cd6e bd3d b034 07be 9e7d 91bc 4212 07bd
00000260: f366 ffbd 473f 55bd e22a 73bc fcaa 17bd
00000270: 0ceb 923c 2631 553c 74ba 0e3d 4602 06bd
00000280: 7233 7d3d aef1 23bd e286 39bc cb83 863d
00000290: cfb0 2ebd 0e05 923d 7dc7 98bc 7dc5 8b3c
000002a0: c046 3d3b 2bb6 e6bc 6ec4 89bb 2437 af3d
000002b0: 5941 3b3d 115d 973d 2ae5 8ebd 87e2 943c
000002c0: 135e 99bb 5141 ff3c a21c 50bc 1352 c53d
000002d0: 866a 85bd ae5b 10bd 9f8c 50bd 08cd 083c
000002e0: 7e4c 83bd dc6b f53c 167f c33c 4a53 03bc
000002f0: 7514 4fbd f96a 693d adaf 883d 4985 913d
00000300: 5641 1d3d 5251 c0bc d913 923c 2f0e 66bd
00000310: 0f15 0ebd 6b1d 4cbd f988 f0bd 3f60 2ebd
00000320: 3631 61bc 786b 08be ba9f 673d 3b43 9f3d
00000330: d0f7 90bd 9f11 b6bd e2a5 973c 6fe5 fabc
00000340: 9330 8abc 390f cb3b ee28 1d3d 8f26 a4bd
00000350: 7383 623d 80bf fd3c d0a9 89bd 6211 953b
00000360: 5068 533d 84d0 a83d 2164 d93d 3d8f 903d
00000370: 5d82 e2bc 8906 813d d29d 52bc f430 58bc
00000380: cc3c b9bc 4171 40bd 02f4 6bbd 8268 7cbd
00000390: 11fd 303d 40ef b93d b2ef 7a3d 73fd 3e3d
000003a0: 5308 b8bd 027c 94bd 1361 ccbd d771 1dbd
000003b0: 28ea 86bd 0dc5 21bc eeb7 193d dd5d 96bd
000003c0: dc7b 26bb 991b 71bc c1ab 72bd fe78 82bb
000003d0: 9c28 4b3c 0140 babb d629 b63c 6ce9 483c
000003e0: f2fc 25bc cb83 473d df6d cbbd e979 dabb
000003f0: d83a de3b 72a3 bcbd 5466 87bd 1f37 093c
-0.01120399 0.09037112 0.002842183 0.05726607 -0.027775833 -0.010618084 0.03396411 0.02126608
0.12041883 0.07840771 -0.026511226 0.011676614 -0.018739017 0.044524543 -0.020194592 0.09052176
-0.09159736 0.034899794 -0.0004614482 -0.050520156 -0.018609703 -0.0913129 -0.034976233 -0.06863639
0.030857086 -0.014222675 0.025902996 -0.0001558697 0.050703138 0.015044722 0.034265846 -0.15163864
0.015868332 0.064710595 0.090235315 0.124422535 0.09194953 0.018126113 -0.026676394 0.03416616
0.08321043 -0.038088664 0.07530884 0.030672573 -0.01973713 0.10792605 0.030650284 -0.06510991
0.026325056 0.009897577 -0.014573673 0.043208078 0.021886531 0.08909465 0.0611396 0.12531434
0.056030016 -0.006081562 -0.050144605 -0.033622414 -0.070463315 0.0075601432 0.09089698 0.07365704
0.022613443 0.050531708 0.0017586487 -0.005338549 -0.07683222 -0.038404644 0.181282 0.11141431
0.042361394 0.06503569 0.13737822 0.089464754 0.0734686 0.029704908 0.045062028 0.057454698
0.06599649 0.052152026 -0.035557825 0.055178612 0.03625531 -0.014115625 0.023568572 -0.11328347
-0.04321722 0.045625236 0.00044597394 0.06939951 -0.012108767 0.0025991998 0.05502481 -0.022494776
-0.002838213 0.060747214 -0.05032284 0.112083055 -0.04306592 -0.03584561 0.017269228 0.05266434
-0.013333692 0.10053905 0.015111925 -0.030432645 -0.06828313 -0.017655276 0.081737995 -0.017726751
-0.020900404 -0.0074768974 0.009699868 -0.032969654 0.06992587 -0.008784173 0.017876629 0.050131448
-0.020981258 0.084097944 0.049149297 0.042573962 0.013352683 -0.0043646027 -0.0052492134 -0.008913527
0.045775093 -0.0491786 0.015135818 0.05747151 -0.015438911 -0.007951265 0.047194544 -0.030292531
0.008208295 -0.018708432 0.028879482 0.0031171339 0.006838879 0.04588005 -0.0658358 -0.011114261
-0.044563495 0.06861633 0.10525797 0.011642964 0.09249649 -0.13203692 -0.017760094 -0.032976396
-0.12470808 -0.0520623 -0.014841767 -0.037028298 0.017934345 0.013012206 0.034845784 -0.032717012
0.06181664 -0.040025406 -0.0113236625 0.06568106 -0.042649087 0.0712987 -0.01864981 0.017061943
0.0028881282 -0.028163036 -0.0042043244 0.08555439 0.045716617 0.07390798 -0.06977303 0.018174423
-0.004680404 0.031159075 -0.012702139 0.09634795 -0.06514458 -0.035243683 -0.050915357 0.0083496645
-0.06411074 0.029958658 0.02386431 -0.008015463 -0.05055662 0.056986783 0.066741325 0.071055
0.038392387 -0.023476277 0.01783173 -0.05616587 -0.03468805 -0.049832743 -0.117448755 -0.042572256
-0.013744643 -0.13322246 0.05654881 0.07776495 -0.070785165 -0.0889008 0.018511716 -0.03062698
-0.016868865 0.006196883 0.03836911 -0.08015167 0.05530114 0.030975103 -0.06721842 0.0045491913
0.051613152 0.08242896 0.10614801 0.070585705 -0.027650053 0.063000746 -0.01285501 -0.013195265
-0.022611998 -0.046983007 -0.05760575 -0.061623104 0.043210093 0.090788364 0.061263748 0.046628427
-0.08985963 -0.07250215 -0.09979453 -0.038438644 -0.065876305 -0.009873641 0.037528925 -0.07342122
-0.0025403416 -0.014716052 -0.05924583 -0.0039817085 0.012399819 -0.0056838994 0.022236746 0.012262683
-0.010131108 0.048709672 -0.099330656 -0.006667365 0.006781917 -0.09210862 -0.066113144 0.008374958

bias f4 [128]
00000000: 6588 bb3b 47c0 253d dcb1 623b fa92 413d
00000010: 1068 823d 7124 9cbc bcea 013d ee5a 60bd
00000020: 9e2a 33bd d7c3 133d 61d4 203b 217f 13bd
00000030: 216d 95bd 6bd8 f23a aade 8a3a 0018 7d3c
00000040: ed32 40bd 5998 143c 4218 233d fedc 473d
00000050: 10d6 0e3d 1564 28bd 7c93 8bbd ddd5 7dbd
00000060: 4d1b d33c b37b 833d b75a 33b9 0312 483d
00000070: 0cc3 5bbd 3eb5 943c 8c09 8c3c c271 bdbb
00000080: 7241 91bc 4516 a0bd 11f7 12bd c9f1 3e3d
00000090: f6ef b83c 80c7 1cbc e0c2 13bd 5248 c03c
000000a0: 0ac4 10bd 6190 333c 1ca4 5bbd 2f46 823d
000000b0: e49d 76bc 61fe e1bb 714d e8b9 2705 e3bc
000000c0: 3aae 683d 1d58 033d f440 eebc 7fa5 a4bc
000000d0: 9409 12bd 76ca 1d3b 45ba b03c ae76 17bd
000000e0: 85ab 153d d376 0bbd 0c09 3e3d 1cb2 e13c
000000f0: 5933 59bd 7f3d a1bc 2ada 4abc 77fe 1c3c
00000100: f6b7 ef3c 986b 3a3d 377e 393d d354 983c
00000110: 1bdf 673d 1194 ffbc cef0 00bd e388 b1ba
00000120: 865c 1e3c 32fc 4d3a f641 d53b 1123 4e3d
00000130: 48bd 4c3d 7599 f8bc a887 84bd 06d7 673d
00000140: c532 cbbb 0a29 4a3d 4ad0 923c cbcd 673d
00000150: 9848 153d db26 8c3d e53a 093c 15f4 9e39
00000160: e607 3f3d a5fb 093d db4a 4ebb b92b 88bd
00000170: fe1d 683d 7670 7dbd 4fb3 47bd 5dbe 013c
00000180: d271 c73c 9ce5 f93c 2eb3 373d b526 80bd
00000190: 65a0 05bd 30d6 a4bd 8693 07bd 71bf c63c
000001a0: 7a99 afbc 52ea 8b3c 8b26 71bd 4268 9cbd
000001b0: 659b 23bc 84e6 d8bb 11c9 39bd 72e9 18bd
000001c0: b4b9 43bd 67f7 01bd 971a 80bd b2be 5fbd
000001d0: 8ff9 783c c217 dc3c 3e15 33bd a905 003d
000001e0: 0496 ffbc 17e2 3e3d 6861 1d3d 4ace 9cbb
000001f0: 5b0c 24bc 8be1 823d cac6 f2bc 8713 3bbd
0.0057230466 0.040466573 0.0034590876 0.04725931 0.063675046 -0.019060345 0.031718 -0.054774217
-0.043741815 0.03607544 0.002454065 -0.03600991 -0.07296205 0.0018527632 0.0010594924 0.015447617
-0.046923567 0.009069526 0.039818056 0.04879474 0.034872115 -0.04111107 -0.0681524 -0.061971534
0.025769854 0.06420078 -0.00017104564 0.048845302 -0.053652808 0.01815283 0.017094396 -0.0057813833
-0.017731402 -0.078167476 -0.035880152 0.046617303 0.02257536 -0.009569049 -0.03607452 0.023471985
-0.035343207 0.010959716 -0.053623304 0.06361043 -0.0150522925 -0.0068967794 -0.00044308187 -0.027712418
0.05680678 0.032066453 -0.029083706 -0.020098446 -0.035653666 0.0024076975 0.021573195 -0.036978416
0.036540527 -0.034048866 0.046395347 0.02755075 -0.053027485 -0.019682644 -0.012381116 0.0095821535
0.029262524 0.045512766 0.045286383 0.018595135 0.056609254 -0.031198533 -0.03147965 -0.0013544824
0.009665614 0.00078577094 0.0065081073 0.05032641 0.0499852 -0.030346612 -0.06471187 0.056601547
-0.0062011206 0.049355544 0.017921586 0.056592744 0.036446184 0.068433486 0.008375858 0.00030317964
0.046638392 0.033687253 -0.0031477723 -0.066489644 0.056669228 -0.06187483 -0.048754986 0.007918921
0.024346266 0.030504994 0.044848613 -0.06257383 -0.032623667 -0.080486655 -0.033099674 0.024261208
-0.021435488 0.017079506 -0.058874648 -0.07637073 -0.009985779 -0.0066192765 -0.045357767 -0.037332006
-0.047784522 -0.031730082 -0.062550716 -0.05462522 0.015196218 0.026866797 -0.04372143 0.031255398
-0.031199463 0.046602335 0.038422972 -0.0047853338 -0.010012711 0.06390675 -0.029635806 -0.04567292

weight f4 [64, 128]
00000000: ee48 a13d 1008 8fbd e2bf 303d ffe7 21bd
00000010: c44d cfbb 865d 17bd 35ea 51bb 0b7f 083d
00000020: 08c3 a23c d19c 013b 94f4 293c b51f 4a39
00000030: 6525 a9bd f888 c0bd 7264 11bd a49d 553b
00000040: 70fc 933d 3a10 63bd 7517 d23d 1696 fc3b
00000050: b847 efbc 5f09 83bb 36c4 953d a1a7 06bd
00000060: f8ad 80bd 01ab 283c 2114 96bd ca01 bf3d
00000070: 3999 21bd fdcd 643c c7f7 e23c 6734 70bd
00000080: 4d9d 85bd da2c 6dbd 369d 9abd fc50 673d
00000090: 87b0 bb3d 29fc 8e3d 4dde ca3d f5c9 2c3c
000000a0: 7415 f2bb 5a85 babc a34b 043d 3ee6 55bd
000000b0: 3632 9ebd f3f1 75bd 9928 313c 2232 56bd
000000c0: 0cee 593b 741a e63c 9364 2cbd d006 d6bd
000000d0: c4c5 c2bd 3b0f 96bd 48b0 353c 2700 5fbd
000000e0: 6fc7 bbbc 2a2e 75bd 192b 11bd 9fb6 fcbc
000000f0: a8b1 abbd 5084 513d ce84 263d 5b65 d1bc
00000100: ff61 94bd 5be1 163c 10dc a73d e485 193c
00000110: 5eeb f2ba 6271 473d 07ce f53b 1e90 a43d
00000120: 1719 4dbd ccd2 38bd fdd9 a03c 03d6 c2bd
00000130: c153 0fbc b770 c03c 2b9c 5d3d 5f04 a53c
00000140: f158 75bd e436 5e3a 0333 44bd 4d15 d63d
00000150: 15d9 47bd c21a 20bd fb47 14bc 859c 24bc
00000160: 2813 8abc f5a3 64bd 9768 ccbc fef1 47bd
00000170: 150a b43c 9901 483a 7739 db3b 5ef9 e83c
00000180: c423 5abd 6851 bc3d fe40 a7bd 7ab8 96bc
00000190: 451d 093d 773b 6f3c 12ed e3bd cd78 d3bd
000001a0: 6845 373d c59c fabb 48eb 58bd 4311 ccbc
000001b0: 7633 b1bd f917 1d3d 2c3b 553c f6ff b4bd
000001c0: 0bf4 29bd f8fb f7bc 4a2c 92bd 06c1 6bbd
000001d0: 9e3d 13bd f0db 19bd c5af b03c 35fd f73c
000001e0: ecbb 64bc 6a96 23bd 2147 f5bb 0fee 6d3d
000001f0: b856 a9bd a020 883d 412d 7ebc 19c7 ad3c
00000200: d0b6 4ebd 99ed bf3d 1514 7abc 76bf dabd
00000210: 26a0 91bd 743b abbd 494d 673d 82e3 95bd
00000220: ca84 1c3d 74e0 c13d f995 ea3d b0e9 b33a
00000230: 32e7 8c3c 19d0 723d bd52 bfbd 87c5 36bd
00000240: 2cc5 fcbd a831 93bd 27c9 a8bd 667a c6bd
00000250: 624c a23d ade4 e9bc d76d 4abd 6bf6 3a3d
00000260: 7005 c3bc ee6d 8f3d 3568 103d 104c 943c
00000270: 06f0 3dbd 7140 b73d 5353 693c 9988 3c3c
00000280: a87f c0bd 09d9 2fbd 171e b03d 0953 1f3b
00000290: 52f8 7d3c 8d60 563d 5e38 953d b383 1a3c
000002a0: be9e 2d3c 8f90 f73c 983c 2d3d 19ab 443d
000002b0: 48e7 903d 2dd7 c4bc abab ba3c 583a 853d
000002c0: 0a97 8f3c 36f6 793c 3889 693c af81 853d
000002d0: 85eb 50bb 4428 ef3c 5d3a 8ebc 7e1d 8b3d
000002e0: aac1 d33c ddc9 d0bd 3ff6 98bd 247f 46bb
000002f0: af82 833d 2cd2 32bd 008b 21bc caf8 923d
00000300: 8861 bd3d caf1 02bd 053c 8c3d d843 3f3c
00000310: 413d 3a3d c31f 763d 7b0c c7bd 0a5e 1abd
00000320: 6dcb 12b9 a139 d93a 749f 89bc 1920 4f3d
00000330: 60a4 dd3c 2e0b 5a3d 9c0c e7bd eb42 ae3d
00000340: 696b 0c3d cdff a4bd 7436 0a3d f14e 3f3d
00000350: 4da0 ab3d b5fd 1ebd 6184 1b3d 1842 7fbd
00000360: 98f6 40bd 7831 2a3d 64db 7f3c f020 b43d
00000370: 7f87 2fbd dfdf c8bc bb0b 84bd 25cb 923d
00000380: 0ea3 e0bc 2876 af3b 67f4 763d b9b5 99bd
00000390: f087 79bd a4cf 5bbc da94 d33d 4e3a b73d
000003a0: 1446 3b3d c3b6 c03d e04f 433d 505a 38bd
000003b0: 6d49 e5bc fc20 a8bc 2087 9c3c 62bc a63d
000003c0: 65a1 a33d 4f03 583d ca95 663b ea3f 903d
000003d0: 89f4 d1bb f857 a93d 9b10 18bd 55fe 253b
000003e0: c35a 5c3c 8a8b b0bd 01b7 213c e1eb d83d
000003f0: 2fd6 673d f444 95bd 089c 6dbd 599c 453d
0.07875238 -0.0698396 0.043151744 -0.03952789 -0.006326409 -0.036954425 -0.0032030467 0.033324283
0.019868389 0.0019777308 0.010373253 0.00019276033 -0.082590856 -0.09401125 -0.035496183 0.0032595182
0.07225883 -0.055435397 0.1025838 0.0077083213 -0.029209003 -0.00399892 0.07312815 -0.032874707
-0.06283182 0.010294677 -0.07328058 0.09326513 -0.039452765 0.013965127 0.02770604 -0.058643725
-0.06524143 -0.057904102 -0.07549517 0.056473717 0.09164529 0.069816895 0.09905682 0.010546197
-0.0073878113 -0.022768665 0.032298695 -0.05222153 -0.07724421 -0.060045194 0.010812902 -0.052293904
0.003325346 0.028088786 -0.042088103 -0.10450518 -0.09510377 -0.07327124 0.011089392 -0.054443505
-0.022922246 -0.05985848 -0.03544149 -0.0308488 -0.083834946 0.051151574 0.040653996 -0.025561025
-0.07245254 0.009209002 0.081962705 0.009370301 -0.001853328 0.048692115 0.007501367 0.08035301
-0.050072756 -0.045122907 0.019635195 -0.09513476 -0.008747996 0.023491247 0.05410401 0.020143686
-0.059899274 0.0008476807 -0.04790021 0.104532816 -0.04879101 -0.03908802 -0.009050365 -0.010047083
-0.016854838 -0.055820424 -0.024952216 -0.048814766 0.021977464 0.00076296326 0.0066902 0.02843922
-0.053256765 0.091952145 -0.08166693 -0.018398512 0.03347518 0.01460158 -0.11129202 -0.10325775
0.044743925 -0.007648083 -0.052958757 -0.024910575 -0.086523935 0.03835294 0.013014596 -0.08837883
-0.041492503 -0.030271515 -0.07137354 -0.05755713 -0.035947435 -0.037563264 0.021568188 0.030272106
-0.01396082 -0.039938368 -0.007485286 0.05808836 -0.082684934 0.06646848 -0.015513719 0.021213101
-0.050467312 0.0937149 -0.015263577 -0.106810495 -0.07110624 -0.08360949 0.05647019 -0.07318784
0.038212575 0.09466639 0.11454386 0.001372626 0.017200086 0.05928049 -0.09341953 -0.04462197
-0.12342295 -0.071872056 -0.08241492 -0.096913144 0.07924725 -0.028551424 -0.049421158 0.04564516
-0.023806304 0.07003389 0.03525563 0.018102676 -0.046371482 0.08947838 0.014241057 0.011507177
-0.093993485 -0.04293159 0.08599489 0.0024310967 0.015501099 0.05233817 0.07286142 0.009430814
0.010596929 0.030220298 0.042294115 0.048014734 0.070753634 -0.024028385 0.022786936 0.06505269
0.017528076 0.015256455 0.014253907 0.06518876 -0.0031878662 0.029194005 -0.017361814 0.067927346
0.025849182 -0.10194752 -0.07468843 -0.0030288184 0.0642141 -0.043657467 -0.0098598 0.07176359
0.09247118 -0.03196887 0.06847385 0.01167389 0.045468573 0.060088884 -0.09719177 -0.03768734
-0.00013999427 0.0016572961 -0.016799666 0.05056772 0.02705592 0.053233318 -0.11281702 0.08508857
0.03428212 -0.080566026 0.033743337 0.046706144 0.08380184 -0.038816173 0.037968043 -0.06231889
-0.04711017 0.041551083 0.015616272 0.08795345 -0.04285383 -0.024520813 -0.0644755 0.07167653
-0.0274215 0.0053546615 0.060291674 -0.07505364 -0.060920656 -0.013416205 0.103311256 0.089466676
0.04572113 0.09409859 0.047683597 -0.045008004 -0.027989114 -0.02052354 0.019107401 0.081414
0.07989768 0.05273753 0.0035184496 0.07043441 -0.0064073247 0.08268732 -0.03712521 0.0025328596
0.013449374 -0.08620365 0.009870292 0.10591865 0.056600746 -0.072885424 -0.05801013 0.048244808

bias f4 [64]
00000000: ebaf 93bd 62b8 eabc ecf1 ce3d 7961 88bd
00000010: e2bc 39bc 9b86 55bd 15a5 723d f7b9 2fbc
00000020: 92a2 9fbd cc5f 873c 5789 abbc e580 39bd
00000030: 37d3 aa3c f5ef 873d 5b22 63bd 3855 79bd
00000040: 8361 82bd 1ffe a33d a3a6 19bd dc5f 923c
00000050: 495a 16bd aad0 683d 58fc 333c 0d33 843d
00000060: 0487 1ebd 7c59 88bd c9cc 42bd f078 57bd
00000070: c0ec 55bd 4ee1 a9bd a630 8c3b 40cb b9bc
00000080: 2f1d 58bd 3652 763d 7440 0dbd 5e5d 2ebd
00000090: 9c80 82bd 0841 80bd 0825 bbbb 478e e7bc
000000a0: 60a1 85bd 01b9 88bd d3d2 8c3d 0a14 6abd
000000b0: d1fe 683d 5742 873d 73da 34bd bfbc 9a3a
000000c0: 55ad 533d 5e31 2ebc bba5 57bd 4203 f0bc
000000d0: 8463 6abd 0197 3abc 4e54 9f3d 68a7 89bd
000000e0: 5021 843d f5ab bc3d 4932 c03c 9245 dcbc
000000f0: 1902 44bc a937 95bc 01e9 1ebd 7c53 ce3c
-0.07211288 -0.028652374 0.10104737 -0.066592164 -0.011336537 -0.052130323 0.059239466 -0.01072549
-0.0779468 0.016525172 -0.020939512 -0.04528894 0.020852668 0.06637565 -0.055452686 -0.060872287
-0.06366255 0.08007454 -0.037512433 0.017867975 -0.036707196 0.056839623 0.010985456 0.0645505
-0.03870298 -0.06657693 -0.04755858 -0.05260557 -0.052227736 -0.082949266 0.0042782603 -0.022679925
-0.052762207 0.060136996 -0.034485295 -0.04256951 -0.063721865 -0.06262404 -0.0057112016 -0.028266085
-0.065249205 -0.06675912 0.06876149 -0.057148017 0.056883637 0.0660445 -0.044153642 0.0011805518
0.051678974 -0.010631887 -0.052648287 -0.029298428 -0.05722381 -0.011388541 0.07779752 -0.06721383
0.06451666 0.09212486 0.023461478 -0.026888642 -0.011963391 -0.018215017 -0.03879643 0.025186293

weight f4 [6, 64]
00000000: b7df 2c3b ab82 f6bc 6207 8f3d 4185 013e
00000010: 793b cbbd 6a85 c93c 4ae9 d7bd 29b5 ffbd
00000020: cd9f de3d 0689 7a3d 633e ab3d 9844 a3bd
00000030: 1ec7 9ebb 8d40 05bd b41b e2bb 4720 ed3d
00000040: b0e7 d83d b45c 063e 703b c93d c74c 7abb
00000050: 5510 61bd f3cc bbbc 27f5 52bd b9ef e63d
00000060: f434 a7bb 1863 62bd 6349 14be bb80 39bd
00000070: 967b fbbd 82f8 8b3d 349f 9abd 942a c23d
00000080: 9623 893c a4d8 e7bd 95ed db3b 5c7c a2bd
00000090: 5bc6 8b3d 0e1c 73bc 8a47 eb3d 59d3 24bd
000000a0: 5231 4ebd 5384 d9bd 661e e93c 3291 5fbd
000000b0: 1c93 a53d c6fb 0fbc 253e 933b c93a 15bd
000000c0: d539 7b3d a9cd 9b3d f201 713d ec7a 9d3c
000000d0: a57a 1e3c 55cb f8bb a814 03be 5147 c5bb
000000e0: cf81 e2bc f100 e33d dc7c b73c a0fa 093e
000000f0: 04e2 b83d 59d1 1cbe e975 d8bd 37c4 e13c
00000100: 50fe b73d 090a c6bd 2696 0d3e 691a 30bd
00000110: bd61 27bc 7849 37bd a7c7 9abd 430a 36bd
00000120: 7eae 0c3e fdbe c9bc 7119 b23d 6609 14be
00000130: b5ea ae3c ff74 89bd fbf6 34ba 0417 84bd
00000140: 64cb 8fbd 0b71 da3d 8326 b63d c471 56bc
00000150: e672 06be 19b8 afbd ac5c f53d 2cbd 153e
00000160: b9dd f03b 1909 12be 2caa 803d f9c4 5f3b
00000170: 860e e8bd bcb9 ddbc c348 95bc 57a4 e1bd
00000180: 5d09 c4bd e828 7cbd c09a f73c 45a0 13be
00000190: daa7 303c d639 b7bd a9e6 cb3c d91c 233d
000001a0: 7a68 b3bc 4414 75bd 25bb c13d e992 54bd
000001b0: ca0d 0a3e 9abd 713b 4b47 21be 5386 9ebc
000001c0: d17c cabb cfc3 9bbd 7233 1d3e 70a5 c33d
000001d0: 22ef f8bc 6f26 f0bd 3699 a3bd 69ed 3dbc
000001e0: 9dd2 fe3c b031 003e e19c e3bd 69cb 0e3e
000001f0: d788 22bc 6e26 e5bd de7d 1ebe 4aef 1cbd
00000200: 14e5 26be a24f 1c3d 103a bfbd 8b44 d4bd
00000210: 28f7 cebc 10b5 e73d 1203 1f3e 0916 3c3e
00000220: d498 ddbd 9ea6 283e 9131 05be d96b 873d
00000230: 5501 2abd f6c1 323e e5ea 16bd 2b61 a3bc
00000240: e66e 0cbe eb2d 0ebe 7794 87bd 010f d13d
00000250: 3a1f e6bc 5b04 753d a03d 76bd e8d9 f3bd
00000260: 3b8f 69bd 7b98 503d 3de9 293e af27 a43c
00000270: 19d7 dd3c 291d d03d e782 103e 7aca b9bd
00000280: 89e3 95bd 3fc9 6c3d fda5 c8bd 21b0 f93c
00000290: 18c9 20be e368 5bb9 48fd 2abe 96b4 1abe
000002a0: 649c 8a3d ea20 c53d e284 87bd d449 dcbd
000002b0: f1da b7bd 7c37 a6bd 8ac9 ab3d fc09 ae3d
000002c0: 5a0c 02be 21d2 c5bd f22c 0fbe beb1 e2bd
000002d0: 16ee 193e 9170 8cbd 9c0d 4e3c 6e79 983d
000002e0: 640c a93d 7bcc 653c 7f0d ab3d 128b 1a3d
000002f0: 358a a3bc 078f d13d bf5d 0b3d 014d a5bd
00000300: a2ba e4bb f356 793c 7b3b f93b 49fb bb3d
00000310: 05ac b1bd 5cdd bfbc 72e5 00be 8d11 febd
00000320: 1d95 4abd 673c 14be 6406 07bb e808 55bd
00000330: eec7 f3bc 4e56 d0bd de8c 5cbc f588 973d
00000340: 101e 19bd f9ff 1a3e 84f2 06bd bc8f 963d
00000350: 3b7b 90bd a686 b23d c06c de3c 73d2 5b3c
00000360: 6eec e23d 76d6 bc3a 4c28 8bbd 7968 123d
00000370: 172f 8d39 0f23 9fbd 6b98 88bd a80c 70bd
00000380: b4d7 5f3d 3f45 19be 5cbe 9b3d 33e7 743d
00000390: 98ad 983b 2a11 6bbd 4e05 8e3d 50d3 b2bb
000003a0: f6e5 973d fc48 16be 6668 9e3d 1635 12bd
000003b0: 76e9 b2bd 821e 1c3e d5b1 23be 417b a23d
000003c0: 30fc a33d c6cd d53d ffa6 113e 5fe2 0b3d
000003d0: 78fc f0bd d987 17bd f00b 9e3d 671b bbbd
000003e0: b871 7d3d 5102 083e 3d54 b33c db9e 2dbd
000003f0: 4ed1 b4bc fa8f 37bd ef9c 38bd 66c5 8c3d
0.0026378462 -0.030091604 0.0698383 0.12648489 -0.09923453 0.02459975 -0.10542543 -0.124857254
0.10870323 0.061165832 0.08361509 -0.079720676 -0.004845514 -0.032532264 -0.006900275 0.11578422
0.10591066 0.13121301 0.0982579 -0.0038192736 -0.054947216 -0.022924876 -0.051503327 0.11276192
-0.005102748 -0.055270284 -0.1448112 -0.045288783 -0.122794315 0.068345085 -0.07549897 0.094807774
0.016740602 -0.11320618 0.0067116716 -0.07933876 0.06824943 -0.014838232 0.11488254 -0.04024062
-0.050340004 -0.10620942 0.028456878 -0.05458183 0.080846995 -0.008788055 0.004493492 -0.036433015
0.06133445 0.07607586 0.058839746 0.019223653 0.009672795 -0.0075925984 -0.12800848 -0.0060204645
-0.027649788 0.11084164 0.022398405 0.13474512 0.09027484 -0.15314235 -0.105693646 0.027559383
0.08984053 -0.09669883 0.13826808 -0.042993937 -0.010216174 -0.0447478 -0.07557612 -0.04444338
0.13738438 -0.024627203 0.08696259 -0.1445671 0.021352151 -0.06711768 -0.0006903258 -0.064497024
-0.070212156 0.106660925 0.08894064 -0.013088647 -0.13129768 -0.08580036 0.119805664 0.14622945
0.00735065 -0.14261283 0.06282458 0.0034144504 -0.11330895 -0.027066104 -0.018223172 -0.110176735
-0.095720984 -0.06156245 0.030225158 -0.14416607 0.010782206 -0.08946578 0.02489026 0.039822433
-0.021900404 -0.05983378 0.09459523 -0.051897917 0.13481823 0.0036886693 -0.15749852 -0.01935116
-0.00617943 -0.07605707 0.15351656 0.09553039 -0.030387465 -0.117260806 -0.07988207 -0.0115922475
0.031106288 0.12518954 -0.11113907 0.13944782 -0.0099203205 -0.111889705 -0.15477702 -0.03831414
-0.16298324 0.03816188 -0.093372464 -0.10364636 -0.025264338 0.11313832 0.15528515 0.1836778
-0.10820165 0.1646981 -0.1300719 0.06612367 -0.041505177 0.17456803 -0.036845107 -0.019943794
-0.1371418 -0.13884704 -0.06620114 0.1020794 -0.028091062 0.059818607 -0.060117364 -0.11906797
-0.05702136 0.050926667 0.1659288 0.020038454 0.027080106 0.10161812 0.14112435 -0.090718225
-0.073187895 0.05780911 -0.09797285 0.030479493 -0.15701711 -0.00020924541 -0.16698182 -0.1510795
0.067681104 0.096254185 -0.06617142 -0.10756269 -0.08977307 -0.081160516 0.0838805 0.08497998
-0.12700024 -0.096592195 -0.13981989 -0.11069058 0.15032229 -0.06857408 0.012576487 0.07445036
0.082543164 0.014025803 0.083521836 0.037730284 -0.019963363 0.102323584 0.03402495 -0.08071328
-0.006980256 0.015218484 0.0076059676 0.09178788 -0.08675388 -0.023420982 -0.12587526 -0.12405691
-0.04945861 -0.14476167 -0.0020603174 -0.052010447 -0.02975842 -0.10172711 -0.01346132 0.07399169
-0.037382185 0.15136708 -0.032946125 0.07351634 -0.07054754 0.087170884 0.027151465 0.013416874
0.11080252 0.0014407176 -0.067947954 0.035744164 0.000269287 -0.07770359 -0.066696964 -0.05860582
0.05464907 -0.14967822 0.076046675 0.0597908 0.004659366 -0.057389416 0.069346055 -0.0054573193
0.074169084 -0.14676279 0.07734756 -0.035695158 -0.087359354 0.15246013 -0.15985806 0.07933665
0.08007085 0.10439639 0.1422386 0.03415143 -0.117669046 -0.03699479 0.07717121 -0.09136086
0.06187603 0.13282134 0.021890754 -0.042387825 -0.02207246 -0.04481504 -0.04507154 0.06873588

bias f4 [6]
00000000: bcbd 973d 0ad5 0e3e a6ba f3bd 1879 0a3e
00000010: dd49 03bd 8b9c 133b
0.07409236 0.13948455 -0.11900835 0.13522756 -0.032052863 0.0022523727
